mini/tflm-tree/examples/mini_rnn_demo/mini_rnn_float32.tflite (tflite, 387292 bytes, 18 tensors)

arith.constant f4 [16]
00000000: 3325 4dbd 5051 b7bc b04a 593d b711 4b3e
00000010: 8827 ee3d e185 0bbd 3115 9e3d 9677 a83d
00000020: 44d2 b13d d1c9 3b3e 4bed 92bd 11fb b33d
00000030: b3cf 09be bba5 7bbc 343d 683d 3522 81bd
-0.050084304 -0.02237764 0.053049743 0.19830976 0.11628634 -0.034063224 0.07718886 0.08225934
0.08682683 0.18338706 -0.07174166 0.087881215 -0.13458137 -0.015359337 0.056698993 -0.063053526

arith.constant1 f4 [32]
00000000: bc8e 983e ba42 63be bbe8 3bbd 425d cbbd
00000010: 54b9 b1be b018 69be 70f7 c6bd 3b38 4a3d
00000020: 5494 423e 25d1 843e ad83 5a3d 1503 0d3e
00000030: 7a15 6cbe a6cf c5bd e7a9 24be 633d b3be
00000040: 5498 1a3e b2be 103e 4a86 103e 4a57 fbbd
00000050: 6094 0d3e 3d87 91be 00e4 393d 13e3 8abd
00000060: 9cbc 5c3d 90ba 3a3e f9d3 66be ba19 193e
00000070: 4025 f73c 7368 dc3d 85a7 85be 910f 293e
0.29796398 -0.22193423 -0.045876246 -0.09929897 -0.34711707 -0.22763324 -0.09715164 0.04937003
0.19001895 0.25940815 0.053348232 0.13770707 -0.23055068 -0.096587464 -0.16080438 -0.35007772
0.15097171 0.14135244 0.14113727 -0.122725084 0.13826132 -0.2842349 0.045383453 -0.06781592
0.05389081 0.1823523 -0.22541799 0.1495122 0.03016913 0.107621096 -0.2610437 0.16509844

arith.constant2 f4 [16]
00000000: 6549 4dbe eb69 e03c 71e1 bc3e bb3d cf3d
00000010: 636e a43b 9d3f 8b3e 59af 0ebe 6f92 33bd
00000020: 23b3 c63d bbf6 a63e cc32 123e 2037 b5bd
00000030: 894c d5bd 55fe 27be 43f3 623c 831a 3f3d
-0.20047529 0.027394256 0.36890748 0.10119196 0.005018042 0.2719697 -0.13934077 -0.04384082
0.09702136 0.32610115 0.1427719 -0.08848405 -0.104149885 -0.16405614 0.013851943 0.046656143

arith.constant3 f4 [64]
00000000: 6f00 d33d 9668 b73d 8eb4 d73d 9539 40bc
00000010: 322b c13f a13a 13bf 8b3e b23f 3a48 88bd
00000020: ad35 a93e 6b09 8d3c 2ba6 06bf 0351 d3be
00000030: 6d36 c2be 89b6 e4be d728 3ebf fa77 49bf
00000040: 2b6d 8fbe 9fdf c93d e53a 983e b721 133e
00000050: 00bd d3be 92bc 3cbe d356 18bf 1fe6 c8be
00000060: ba06 ba3e 8de0 40be 82ee 1bbe f0e8 e6be
00000070: 098d 20bf 0e20 883f 25b6 e3bd 74ea 4abe
00000080: c663 9b3f 4bec c53d 9733 1dbe 3de7 543c
00000090: a057 a13f 11a6 02bf be95 b4bd 577d 02bf
000000a0: 13a8 503f 1312 05bf 932c b6be 5fc3 c93f
000000b0: eca3 1bbf a260 3cbf 8e55 34bf 811c d23f
000000c0: 3b36 853f 8e5b 0cbe acc8 9bbe 1b3a 59be
000000d0: aaee 7ebe 83df 57bf 1433 1b40 0fbe b1be
000000e0: 4e33 4ebf 335b febe 3ecd b8be a3c5 74bf
000000f0: f146 2440 525f 72bf d2cf 1540 b31d 12bf
0.10302817 0.08955495 0.10532485 -0.011732479 1.5091307 -0.57511336 1.3925337 -0.06654401
0.33048764 0.017216405 -0.525973 -0.41272745 -0.3793215 -0.44670513 -0.74281067 -0.78698695
-0.28012976 0.098571055 0.29732433 0.1436833 -0.41355133 -0.18431309 -0.59507483 -0.39238068
0.36333257 -0.1883566 -0.15227702 -0.45099592 -0.627152 1.0634782 -0.11118726 -0.19816
1.2139823 0.0966421 -0.15351711 0.012994585 1.2604866 -0.5103465 -0.088176236 -0.50972503
0.8150646 -0.51980704 -0.35580882 1.5762748 -0.60797 -0.7358495 -0.70443046 1.6414949
1.0407175 -0.137068 -0.30426538 -0.21213572 -0.2489573 -0.84325427 2.4249926 -0.34715316
-0.80547035 -0.49678954 -0.36094087 -0.9561407 2.56683 -0.946767 2.3408093 -0.5707657

arith.constant4 f4 [16]
00000000: 1d53 813e 7f72 333e d7e1 e73d bc02 063e
00000010: f953 b23d b40d fd3d 04dd 4dbd 1bd6 6d3e
00000020: a983 a13d 5105 153e 2afa ed3a 2922 8c3e
00000030: 99a0 723e e014 64bc 6897 2b3e 6559 823d
0.25258723 0.17524146 0.113223724 0.1308698 0.08707423 0.12356129 -0.050259605 0.23226206
0.0788644 0.1455281 0.001815622 0.27369812 0.23694076 -0.013920993 0.16756976 0.06364707

arith.constant5 f4 [9]
00000000: d070 0cbf 9146 15bf caea 0ebf 272c 09bf
00000010: dc41 90be 8d1f 0abf 78aa a8be 5b00 f6be
00000020: 6bc4 e8be
-0.5485964 -0.583108 -0.5582701 -0.53582996 -0.28175247 -0.5395439 -0.32942557 -0.48047146
-0.45462355

arith.constant6 f4 [384]
00000000: 92b6 b13e 4fd1 343e 1670 8b3e 85e6 143e
00000010: 78fc bc3e 7a74 953e 5c87 103e 64f2 923d
00000020: 463c 3f3e 076f 963e 6e03 4e3e 2501 353e
00000030: bac4 a93e 32bd 873e 7c86 273e 4dfe e53d
00000040: 5e4b b13e e226 763e 88bd 3e3e ff94 113e
00000050: 365f 433e 0adf ac3e 2ff2 bc3e e287 523e
00000060: d66d a53e cb2d ab3e 110b 9e3d b492 6e3e
00000070: 6371 873c 879e 0a3d 41ee 02bd f97a c23d
00000080: 9cfd 4f3e 50bf 863e 68d8 c83d 74bc b23e
00000090: cd75 a73e df50 ca3e 34d5 3a3d 3e78 593e
000000a0: e397 713e 31cd a23e b326 253e 353f 6d3e
000000b0: 8fa5 763e 2ad7 423d 4516 433e 24a4 8d3e
000000c0: d5b1 5d3e 8f43 623e 137a 273e ea0e 913e
000000d0: 44c5 cb3e 8c81 9e3e b223 473e c4a3 433e
000000e0: cf09 a13e d763 963e c7ee 3e3e 8dfb 2d3e
000000f0: 0e0c 113e c144 a43d 11fe 8f3e 7ff5 9e3d
00000100: 1b99 8f3d 0af4 4f3e d734 d03d fcb5 593e
00000110: 9409 d43e 3637 c33d 0041 8d3e 2633 0b3e
00000120: 1178 5c3d 292d a23d 26b8 e43d 0a90 943e
00000130: 6ef9 143e db2e 8d3e 6a93 9d3e 1018 b63d
00000140: efaa 453e 6253 973e 7c52 6a3e f2ca 753d
00000150: ce72 ed3d d5a1 9a3e 9b88 e23d f686 563d
00000160: 4245 9d3e caa9 d63d fc1b ae3e 68c8 903e
00000170: 452e 493e 4701 3d3e d882 0d3e e65e a93c
00000180: f191 de3c 2512 673e 45da 713e d233 ad3e
00000190: 7a6f 473e 98d5 3e3d 120e 9b3e 9660 823e
000001a0: 4f60 ad3e 1a3b 503e bc61 043e b01a 973e
000001b0: 4499 983e ed61 963e 7026 183e b98d 6a3e
000001c0: eedf 913d 50a9 a93c a7c0 a73e f453 873e
000001d0: f3a2 b23d 8472 b03e f0ad 313e fadb 8c3d
000001e0: 6bad 9c3e 12ca 943e 73ef ad3e 1439 c13e
000001f0: fc63 5d3e 0af7 fe3d 6ac6 5a3e 98f9 08bd
00000200: 203c 00bd 936a 02bd 580d 293d 5884 6cbd
00000210: 1747 88bd 547b e0bd 3344 89bd 8b45 abbc
00000220: 8c8a 60bd 77a8 2cbd 6b82 3dbd 29a4 1dbc
00000230: 8183 223a b8dc a33d 74b7 973c d33d 62bd
00000240: bed8 a0bb cb7f c33c 6722 4fbd 7f27 edbc
00000250: 860d b8bd 834b 11bd 9343 e93c 291f 033c
00000260: 431e 88bb 168b d2bc 8739 ccbd 73d4 d6bd
00000270: 9313 5a3d 3506 c5bc efce cabd 8fcf 29bd
00000280: 9768 7cbc f703 fcbd 0bc9 babd 012b 3a3d
00000290: 121a 30be ae27 67bd c4f1 473d ce7c debc
000002a0: ff77 8dbd e7c4 22be 420c b53b 3a2d 123d
000002b0: 23e6 9e3c 35ea 1d3c 1d1f d3bd 1b90 8abc
000002c0: affd ddbd e3a2 c9bd 6ad3 d0bc 3792 bb3d
000002d0: 864d 5bbd be01 a4bd cf72 8fbd 342f 123d
000002e0: 2c05 603d 7c31 7ebd 3464 8e3c 88c8 893c
000002f0: 6812 f23d 00b4 3cbc d0b5 8a3c cd73 bebc
00000300: d3be 04bd 40b0 d23a 7e99 e83d a3fb 46bd
00000310: ede0 15bd e60e 303d d8a3 18be f461 cf3d
00000320: f083 13be d878 4a3d 24ee 44be 52f1 68bc
00000330: e196 8dbd 68be 59bd e925 95bc 05d6 b73d
00000340: 0837 383d 907a c13c 3a25 4fbd 479d 6dbd
00000350: 5904 913c 6a9b 24be 6736 9e3d 9fc0 153d
00000360: e869 10be ea64 c6bc 90a0 093d 3358 9e3b
00000370: 463b 7cbd bad8 b43d a98d 0b3c b853 aabc
00000380: af15 c73b abaf 16bd be04 013d d22b b1bd
00000390: df00 ea3c 0c3b 42bc 75e2 5c3d 582e 263c
000003a0: ef60 e5bd 0234 44bd 968d 873c 19f2 24be
000003b0: 2e13 ce3d 94ce 253d 68b0 0bbd 57ad b03d
000003c0: f78e 61bd 0a9d ccbc 5320 20bd 5f27 13bb
000003d0: 74a1 313d f897 0a3e a884 dcbc 59fd 423a
000003e0: 126d 49bc 5e61 0d3d 381e 26be 4301 9cbc
000003f0: b5f8 223d 8a39 b53c 0bc1 c3bd cdc1 a83d
0.34709603 0.1765797 0.27233952 0.14541061 0.36911368 0.29190427 0.14114136 0.071751386
0.18675336 0.29381582 0.20118496 0.17676218 0.33157903 0.26511532 0.16359895 0.11230145
0.34627813 0.2403827 0.18626988 0.14216994 0.19079289 0.33763915 0.3690352 0.20559648
0.3231036 0.33433375 0.077169545 0.2329815 0.01653356 0.03384259 -0.031965498 0.094961114
0.20311588 0.26317835 0.09806901 0.34909403 0.32707062 0.39514825 0.045613483 0.21237275
0.23593096 0.31797174 0.16128044 0.23168643 0.24086593 0.047568478 0.19051464 0.27664292
0.21649869 0.22096084 0.16355161 0.2833169 0.3979894 0.3095821 0.1944721 0.1910544
0.31452796 0.29373047 0.18645774 0.1699049 0.14164755 0.08020926 0.28123525 0.077616684
0.070116244 0.20307937 0.101663284 0.21260828 0.41413558 0.09532015 0.27588654 0.1359373
0.05382544 0.0791877 0.11167936 0.29016143 0.14548275 0.2757481 0.3077653 0.08891308
0.19303487 0.29555804 0.22883028 0.060007997 0.11594163 0.30201593 0.11061212 0.052374803
0.30716902 0.104816034 0.34005725 0.28277898 0.19646557 0.18457519 0.13819444 0.020675134
0.0271692 0.22565515 0.2361842 0.33828598 0.19476119 0.046590418 0.30284172 0.25464314
0.3386254 0.20335045 0.12927908 0.29512548 0.29804432 0.29371586 0.14858413 0.22905625
0.07122789 0.020710617 0.3276417 0.2643124 0.08722486 0.34462368 0.17351508 0.06877895
0.30601057 0.29060417 0.33971748 0.3773886 0.21620172 0.12449463 0.21364751 -0.033441156
-0.03130734 -0.03183992 0.04127249 -0.0577434 -0.06654184 -0.10961023 -0.06702461 -0.020907184
-0.05481963 -0.042152848 -0.046266954 -0.009621658 0.0006199405 0.08001083 0.018520094 -0.05523474
-0.00490865 0.023864647 -0.050569918 -0.028949497 -0.089869544 -0.035472404 0.028474605 0.008003035
-0.004153998 -0.025701087 -0.0997191 -0.1048974 0.053241324 -0.024050811 -0.09902751 -0.04145771
-0.015405796 -0.12305444 -0.09120377 0.045451168 -0.17197445 -0.056434326 0.04881455 -0.02715912
-0.06907653 -0.15895425 0.005525143 0.035687663 0.019396847 0.009638359 -0.10308669 -0.016914418
-0.10839402 -0.09845521 -0.025491435 0.09158748 -0.05354073 -0.08008145 -0.0700432 0.035689548
0.054692432 -0.06205891 0.017381765 0.016819254 0.11819917 -0.011517525 0.016932398 -0.023248577
-0.032408547 0.0016074255 0.11357401 -0.048579823 -0.03659146 0.04298296 -0.14906251 0.10126105
-0.14405799 0.04943165 -0.19231468 -0.0142176915 -0.069135435 -0.0531601 -0.018206554 0.08976368
0.044974357 0.023618013 -0.05057261 -0.05801132 0.017702268 -0.16074911 0.0772522 0.03656065
-0.141029 -0.024218041 0.03360039 0.0048322915 -0.061579965 0.088304 0.008517661 -0.020791873
0.006075583 -0.036788624 0.031498663 -0.08650936 0.028564868 -0.011854898 0.053926904 0.010142885
-0.11200129 -0.04790116 0.016547006 -0.16107978 0.10062252 0.04048021 -0.03410378 0.08626812
-0.055067983 -0.024977226 -0.039093327 -0.0022453887 0.043366864 0.13534534 -0.026918724 0.00074382644
-0.012294071 0.034516685 -0.16222465 -0.01904357 0.039787967 0.022122163 -0.095583044 0.082400896

arith.constant7 f4 [384]
00000000: ff2c 953e 2693 ab3d aba6 9f3e 51b0 093e
00000010: a214 983e 250c 6a3e 1596 eb3d c39b a83d
00000020: f6b2 933e 7f6f 733e 6a30 923e 2a2e 4f3e
00000030: cae3 883e 96a7 8d3e b371 723e 3d10 563e
00000040: cb95 7d3e 053f 403e 0e34 263e d19f 843e
00000050: bb46 e43d cd72 be3e 77fb 653e 76bf 5c3e
00000060: 6401 b23e e1b9 953e 3cad 073e 61f0 183e
00000070: acf5 7f3d ce66 e53d 0a17 a1bc 86ba 843d
00000080: 7a94 493e b30d 913e e3a5 ef3d 8607 663e
00000090: a2f6 923e cbb2 a33e 0ec6 1e3e 9c91 3f3e
000000a0: 2657 6b3e b8d9 ad3e 2c28 883e b67b 8a3e
000000b0: 4076 8b3e 15d4 b53d 21af 553e e78f 123e
000000c0: 1211 2b3e ce4c 9a3e 6708 693e 0f19 833e
000000d0: 7242 a13e 848a 843e 9a5b 7e3e 7f38 993e
000000e0: 60d6 723e 67b3 853e c18a 9a3e 8cd1 cf3d
000000f0: 9c81 6e3e 87a3 d13d edd8 a33e 608b e33d
00000100: b1c9 653c f503 203e 770a 1a3e eb87 8b3e
00000110: 1ca3 773e a799 90bd dba3 9c3e 0c21 ae3b
00000120: 56b5 2a3e c62f 253d caad 7a3e eabc 2c3e
00000130: c559 4a3e 72a5 813e ca57 4f3e f850 533e
00000140: bfba 323e 739d 313e 420c 123e 1960 c33d
00000150: 5d42 a83c 9ae6 a03e 7fa9 243e 9052 803d
00000160: 77e2 843e 95c6 503e 66f9 683e 69fe 6c3e
00000170: 5ec3 803e 9d3d 123e 944b 5d3e b13e 543d
00000180: f17d 183e a429 643e 098b a93e 7e23 cb3e
00000190: 6199 403e 580e 46bc 16a7 ae3e 7601 373e
000001a0: bbc7 ae3e 41fd a83d 6450 6a3e 189b 9e3e
000001b0: aa5f a13e 8e56 503e 2493 fe3d 7566 353e
000001c0: f707 0c3e 31c7 593d 0ba9 4d3e 621d 993e
000001d0: ecdf d03d 84a8 813e a4b9 333e 2276 d5bc
000001e0: d088 9a3e 87de a33e 620d b43e 2588 a43e
000001f0: bbb9 1c3e 7d0d f23d 0dbd 4a3e eb65 a43d
00000200: 90d2 a43d 2efa c2bd 354e 06be b7be e4bc
00000210: 8df4 a33c 042a a03c 2f00 0a3d bc96 81bd
00000220: 5916 c8bd 95e9 2a3d 0cea c2bc 3d3c 1ebe
00000230: 787f a1bd 2847 363c 36a4 ab3d 5463 003d
00000240: 14d1 86bc 10ea 81bd ef73 d43c c2b8 73bd
00000250: 7a58 2abd 26cc d3bd 4890 9d3d f64a dabd
00000260: e5d0 d9bc 37ce 5fbd 75ee ccbd 63d0 ce3c
00000270: e4b5 ca3d 5b61 923b cd32 c83c 1544 00bd
00000280: 9ff3 6fbd 3488 1fbe 8be0 45bc 72c9 6abd
00000290: aee2 46be c254 753d 006e 4a3c 0193 073d
000002a0: bd4a f1bd 74c3 b8bd 9c01 36bd 82f6 94bd
000002b0: 9ae2 23bc ba14 2cbd 8177 89bd 2438 73bd
000002c0: d407 10be fc9b b33c 123b e1bb 980c 503d
000002d0: 32fb 873d 8d00 31bd 1c31 f03b c0c1 8fbd
000002e0: 1d58 c1bd d15f 89bd db6d 5c3d 8ba0 2bbd
000002f0: 731c 73bb 7f00 83bc f5d0 233d 6096 3f3d
00000300: 4874 fbbd 6c03 d23d 693e cd3d 0d33 88bd
00000310: f438 b53d 9ad9 adbd 42c3 bbbd 8677 ad3c
00000320: 2169 eebd 261c e3bc 5d39 60be 483a 66bc
00000330: 612c cdbd 4184 b5ba dc8a 663d faff 84bc
00000340: 4068 273d 66ad 2fbd 423f 07be 9e9d b63d
00000350: 3dd5 e43d 6045 8cbe b268 8cbc 2f8b 18bc
00000360: 4625 12be e6fc f1bc 3504 763c 3745 0cbd
00000370: 10bf 65bd eab8 343c ce78 b53c 0189 7abd
00000380: fea3 de3d 5d9b 0d3d cf0e 8abc 35bc 27bd
00000390: 4cf3 1ebd 4399 ac3d 6eb5 a13c 7707 153b
000003a0: 5c3e dcbd 9ef8 053d b97b 98bd 58be 15be
000003b0: 0fe4 943d 025d 603d 36e9 0ebe 4314 823c
000003c0: 4170 64bd 28ae 07bd 4ee2 d2bd f267 de3d
000003d0: 820d b1bb 2a87 3d3d 34bd fe3b 71d5 573d
000003e0: d369 3dbd d130 d03c b46b 25be 4878 ebbd
000003f0: c68d d3bd 364d 04bd 8980 233c 7ff4 8f3d
0.29135892 0.08377676 0.31181845 0.13446166 0.29703242 0.22856195 0.11503235 0.08232834
0.28847474 0.23773001 0.28552562 0.20232454 0.2673629 0.2766692 0.23676185 0.20904632
0.24764173 0.1877404 0.16230795 0.2590318 0.11146303 0.3719696 0.22459207 0.21557412
0.34766686 0.29243377 0.13249677 0.14935447 0.06249015 0.11201249 -0.019664306 0.06480889
0.19685546 0.28330764 0.11701562 0.22463807 0.2870379 0.31972346 0.1550524 0.1870789
0.22982463 0.3395517 0.2659315 0.2704751 0.27238655 0.08878342 0.20867588 0.14312707
0.1670573 0.30136722 0.22757111 0.25605056 0.31496006 0.2588693 0.2483963 0.29925916
0.2371459 0.26113436 0.30183986 0.1014739 0.2329163 0.102362685 0.3200144 0.11110568
0.014025138 0.1562651 0.15043055 0.27252135 0.24183315 -0.07060557 0.30593762 0.005313998
0.16670737 0.040328763 0.24480358 0.1686894 0.19760807 0.25321537 0.20248333 0.20636356
0.1745405 0.17345218 0.14262488 0.095398135 0.020539457 0.31425935 0.16080283 0.062657475
0.2595403 0.20388253 0.22751388 0.23143925 0.25149053 0.14281316 0.21610862 0.0518176
0.14891793 0.2228151 0.33113888 0.39675516 0.1880851 -0.012088381 0.3411185 0.17871651
0.34136757 0.08251429 0.22882229 0.30977702 0.31518298 0.20345518 0.124304086 0.17714866
0.13674913 0.05316848 0.20084016 0.2990523 0.1019896 0.2532388 0.17551285 -0.026057307
0.30182505 0.32005712 0.3516646 0.3213512 0.15305226 0.11818979 0.1979868 0.08027252
0.08047974 -0.09520374 -0.13115771 -0.027922971 0.020014072 0.019551285 0.03369158 -0.063275784
-0.097698875 0.041726667 -0.023793243 -0.15452667 -0.07885641 0.011125363 0.0838093 0.031344727
-0.016457118 -0.06343472 0.025934188 -0.05950237 -0.041588284 -0.103416726 0.07693535 -0.10658829
-0.026588866 -0.05464002 -0.100064196 0.02524585 0.09897974 0.004467172 0.024438286 -0.031314928
-0.058581945 -0.15579301 -0.012077461 -0.05732102 -0.19422409 0.059895284 0.012355328 0.03309918
-0.11781833 -0.09021655 -0.04443513 -0.0727358 -0.0100027565 -0.042011954 -0.06712247 -0.05937971
-0.14065486 0.021924965 -0.006873497 0.05079326 0.066397086 -0.043213416 0.007330073 -0.07019377
-0.094406344 -0.06707729 0.053815704 -0.041901153 -0.0037095814 -0.015991447 0.0399942 0.04677427
-0.12278038 0.10254559 0.100216694 -0.06650362 0.088487536 -0.0848877 -0.09168102 0.021175157
-0.116411455 -0.027723383 -0.21896882 -0.014051981 -0.1001823 -0.0013848619 0.05628477 -0.01623534
0.040870905 -0.042889975 -0.13207725 0.08916782 0.111734845 -0.2739668 -0.017139766 -0.009310528
-0.14272031 -0.029539537 0.0150156515 -0.034245696 -0.056090415 0.011030415 0.02215233 -0.061165813
0.10871123 0.034571994 -0.016852764 -0.040950973 -0.038806245 0.0842767 0.019739833 0.0022740045
-0.107540816 0.032707803 -0.07445473 -0.14623392 0.07270061 0.0547762 -0.1395615 0.015878802
-0.055771116 -0.033125073 -0.102970704 0.1085967 -0.0054032216 0.04627148 0.0077740196 0.052693788
-0.0462435 0.025413902 -0.16154367 -0.11497551 -0.103297755 -0.032300197 0.009979376 0.07029056

arith.constant17 f4 [16, 1, 21, 4]
00000000: f637 48bf 22dd 22bf 6b28 22bf 3637 11bf
00000010: b4d8 24bf 5d1e 3dbf d82d 2dbf 00ad 0ebf
00000020: f8be 3abf ba9f 32bf a88a 2cbf 9f00 1abf
00000030: 7b22 4cbf eb68 1bbf d970 22bf c2f8 0fbf
00000040: a837 21bf 04d9 1abf 17e2 37bf 0905 f8be
00000050: 9d8a 4ebf fe54 0ebf 92c3 34bf 2d94 07bf
00000060: fe68 33bf a2a9 fcbe 5371 12bf 1efb cabe
00000070: 506e 24bf 579f f0be ea1b 0abf de9d eabe
00000080: f023 2fbf 6385 d5be c138 13bf 3b30 f9be
00000090: 2358 10bf 9478 9fbe 5c69 bfbe 7878 10bf
000000a0: f552 02bf be5b ffbe f00a f9be 0db0 c4be
000000b0: 6b18 17bf 10f6 0abf bccd 10bf 1377 1dbf
000000c0: c980 2ebf e854 16bf fe97 0ebf 7155 22bf
000000d0: 51eb 30bf 9f88 febe 0a03 2ebf 09b0 1fbf
000000e0: e676 0ebf d2ee 12bf 1672 16bf 89f4 f2be
000000f0: eff3 0dbf 0ba5 f5be e71f 1dbf 8e3e 0cbf
00000100: 4769 13bf 88af ddbe 8394 e9be f3de dabe
00000110: c9f9 e8be 5543 0fbf 3276 05bf 1e77 f6be
00000120: 967a 17bf 89d3 bdbe 88ca 05bf cafb b0be
00000130: 76f3 03bf a82f 02bf d1c4 c6be 4c87 98be
00000140: 9fa1 94be e00d 8bbe 4069 27be 0a6b 92be
00000150: 8b83 c03f 976c b1bf d230 b33f 6ea6 a0bf
00000160: 5fd9 ad3f f5db acbf 640f bb3f 7e92 a1bf
00000170: b707 c53f a9ce 9cbf fc38 c43f c2b2 a0bf
00000180: 3bd5 b13f 8f1f a8bf 54df c13f cba2 a6bf
00000190: 8e2a c03f 5ed6 a6bf 0aa0 c83f 5f9f afbf
000001a0: 9377 cd3f ab60 abbf 8478 c13f b91b a9bf
000001b0: 6691 b33f 5cf1 b7bf dff2 ca3f 4d40 b4bf
000001c0: 6cc2 bb3f b7f7 afbf 4d30 b03f ded3 a2bf
000001d0: e554 c53f ef34 c9bf ea09 b53f e8f8 adbf
000001e0: 391c c43f ccda c4bf e9d7 b73f d04d a5bf
000001f0: f97c c83f 2df6 c2bf 0590 ae3f 6f50 abbf
00000200: 4f77 ce3f 3628 cabf 4b07 9a3f 4f0b b3bf
00000210: 65db c53f bf38 bbbf f5bd a83f e4dc a9bf
00000220: afe0 c23f c302 ccbf 4240 aa3f 4f76 b7bf
00000230: fa6c d63f 05fc bbbf 39d2 ae3f dd6d b8bf
00000240: bd62 c63f 6966 adbf c341 a83f 957e afbf
00000250: fff5 c43f b789 adbf 4a11 bb3f b3a7 b1bf
00000260: 408e bc3f cbe3 9fbf 2c29 ac3f 9882 afbf
00000270: 1e7d cb3f 0705 a3bf 0c59 ab3f 3397 afbf
00000280: fc4a c43f 160f a6bf 975d c23f b12a 9abf
00000290: 2a71 9f3f b9bd b5bf 24c1 a73f c41e aabf
000002a0: dfa3 bdbf f648 a3bf c396 a1bf bbf7 c7bf
000002b0: 5bd9 bcbf daa4 a6bf a209 8fbf f06a c4bf
000002c0: fce7 bdbf a253 abbf 3d0c a3bf 74d3 c3bf
000002d0: 6f50 bebf 2325 a6bf 6a51 92bf a1c3 c5bf
000002e0: bf21 d1bf 8e65 c1bf 1be8 97bf ba59 d3bf
000002f0: 98ac c5bf 8d9c bdbf 1c6e 98bf ff19 d7bf
00000300: e3e8 cbbf 7982 b8bf 702a b3bf 4d00 dfbf
00000310: 747e d6bf 2a62 afbf 24e3 acbf f897 ebbf
00000320: c463 cebf 1304 c6bf 9525 afbf ca5b d7bf
00000330: f95e c4bf 2367 babf d397 a7bf 1b60 dabf
00000340: d8b6 cabf 2c8e bfbf 8832 a4bf adf6 d7bf
00000350: 6964 cebf 57ad babf 56ee aebf ff56 dfbf
00000360: 63ad c4bf b926 bfbf b760 adbf c9be e0bf
00000370: b801 e5bf 82d8 c8bf 713c bebf 022d febf
00000380: 0ffc e1bf 37da cebf ae15 c1bf 7c39 f5bf
00000390: d058 d6bf 13cf cebf 07c9 babf 8e38 ecbf
000003a0: 9582 cebf 7e54 d3bf e4b9 bebf 117b efbf
000003b0: bd5b d8bf 01b3 bebf cafe acbf 42d5 efbf
000003c0: 642d dabf accc c1bf 14f9 b8bf 7859 d7bf
000003d0: 2f9d ccbf ec31 bebf 7a0c b0bf 2884 d8bf
000003e0: a405 d0bf 9a9c c6bf 0f34 a0bf f4bf e2bf
000003f0: afed 5cbf 5b92 79bf c22f 57bf 8ea6 7abf
-0.7821039 -0.6361867 -0.6334292 -0.5672487 -0.6439316 -0.73874456 -0.67648077 -0.5573273
-0.72947645 -0.69774973 -0.6739907 -0.601572 -0.79740113 -0.6070697 -0.6345344 -0.5623895
-0.6297555 -0.6048739 -0.7182936 -0.48441342 -0.8068026 -0.5559844 -0.70610917 -0.52960473
-0.7008208 -0.4934817 -0.5720417 -0.39644712 -0.64230824 -0.46996567 -0.53948843 -0.45823568
-0.6841421 -0.41703328 -0.57508475 -0.4866961 -0.56384486 -0.3114668 -0.3738507 -0.5643382
-0.5090783 -0.4987468 -0.48641157 -0.38415566 -0.59021634 -0.5428171 -0.56563926 -0.6150982
-0.6816526 -0.58723307 -0.5570067 -0.63411623 -0.69109064 -0.4971361 -0.6797339 -0.62377983
-0.55650175 -0.5739566 -0.5876783 -0.4745219 -0.5545034 -0.4797748 -0.61376804 -0.5478295
-0.57582515 -0.43297982 -0.45621118 -0.42748222 -0.4550307 -0.55962116 -0.52133477 -0.48137754
-0.59171426 -0.3707545 -0.52262163 -0.345671 -0.51543367 -0.5085397 -0.38822034 -0.29790723
-0.29029557 -0.27159023 -0.16348743 -0.2859729 1.5040144 -1.3861264 1.3999274 -1.255079
1.3581961 -1.3504626 1.4614072 -1.2622831 1.5392979 -1.2250568 1.532989 -1.2554553
1.3893198 -1.3134631 1.5146279 -1.301843 1.5012987 -1.303417 1.567384 -1.3720511
1.6052116 -1.3388876 1.5114903 -1.3211585 1.4028747 -1.4370532 1.5855368 -1.4082123
1.4668708 -1.3747472 1.376474 -1.2720907 1.5416533 -1.5719279 1.414365 -1.3591585
1.5321113 -1.5379272 1.4362766 -1.2914371 1.5663139 -1.5231377 1.3637701 -1.3383921
1.613016 -1.5793521 1.2033476 -1.3987826 1.5457579 -1.4626693 1.318297 -1.3270535
1.5224818 -1.5938343 1.330086 -1.433298 1.6752007 -1.4686285 1.3657905 -1.4408528
1.5498883 -1.3546878 1.3145069 -1.3710505 1.5387572 -1.3557652 1.4614651 -1.3879303
1.4730911 -1.2491392 1.3450065 -1.3711729 1.5897558 -1.2735909 1.338655 -1.3718017
1.5335383 -1.2973354 1.5184811 -1.2044278 1.245641 -1.4198524 1.3105817 -1.3290639
-1.4815634 -1.2756641 -1.2624134 -1.5622476 -1.4753832 -1.3019059 -1.1174815 -1.5345135
-1.4836421 -1.3384898 -1.273811 -1.5298905 -1.4868296 -1.2980083 -1.1431096 -1.5450326
-1.6338423 -1.5109117 -1.1867708 -1.6511757 -1.5443296 -1.48134 -1.1908603 -1.6804808
-1.5930446 -1.4414817 -1.3997326 -1.7421967 -1.675734 -1.3701832 -1.3506818 -1.8405752
-1.6124196 -1.5469993 -1.3683344 -1.6824887 -1.5341483 -1.4562725 -1.3093208 -1.7060579
-1.583705 -1.4965262 -1.2827921 -1.6872154 -1.6124393 -1.4584149 -1.3666484 -1.7448424
-1.5365413 -1.4933692 -1.354514 -1.7558223 -1.789115 -1.5691073 -1.4862195 -1.9857485
-1.7655047 -1.6160344 -1.5084741 -1.9158168 -1.6745853 -1.6156944 -1.4592599 -1.8454759
-1.61336 -1.651016 -1.4900479 -1.8709432 -1.6902996 -1.4898378 -1.3515255 -1.8736956
-1.7045102 -1.5140586 -1.4451013 -1.6824179 -1.5985469 -1.4858985 -1.3753808 -1.6915331
-1.6251721 -1.5516541 -1.2515887 -1.771483 -0.86300176 -0.97488946 -0.8405725 -0.9791039

arith.constant18 f4 [32, 1, 11, 2]
00000000: d5af 7c3d 2251 0f3e b950 213e 7462 2fbe
00000010: 5566 97be 79a6 903c b1d4 43be d395 b43d
00000020: 1051 42bc 2059 85be 270e 86be 4b6f 033d
00000030: 8dbe 03be e688 a3be 3a49 4cbe 2055 23be
00000040: e219 38bd c19f b3bd 4c08 b93c 3954 b9be
00000050: b303 0dbe 356f 33be dff7 823f 0ec9 923f
00000060: 0290 803f 16d0 9c3f d0fc 803f df45 9c3f
00000070: 80aa 603f bbb7 853f 2774 6c3f ac8d 4e3f
00000080: 15cc 963f b2bf 7b3f c368 543f b726 743f
00000090: 511d 733f 1b55 453f adc8 873f 629a 5f3f
000000a0: 17fd 913f 81be 833f 31ef 8e3f 2380 2a3f
000000b0: 624f afbe c266 7d3f 0204 bbbe e6c3 7b3f
000000c0: 8c96 14be 657d 9f3f 31a2 febe 812f ad3f
000000d0: 3d78 d2be 5c10 983f e7b3 c4be d4c8 7a3f
000000e0: a4ca 77bd b243 693f 0b0e 40be 61a0 5a3f
000000f0: 48c5 e9bd 3449 8a3f c72b f0bc 2f4c 5f3f
00000100: cdb3 cabe 1b73 833f eaef 87be 691a 743f
00000110: ed41 8abe d82e 6a3f f718 30be f50d 4f3f
00000120: 78e8 a7bd 162d 423f 9871 c03d c501 733f
00000130: 7f02 7abd 5923 683f c502 943d fb6e 793f
00000140: 5fc6 fa3c a8da 6a3f f898 2d3d 34dd 7d3f
00000150: fa2b 073e d39c 603f 6964 063e 1433 813f
00000160: a4dd 3fbf 446e d3be 54b9 37bf f858 c5be
00000170: a145 69bf 8508 04bf b029 3bbf 27d7 08bf
00000180: 92ef fabe ba48 d6be 3163 41bf 31fb d5be
00000190: bdd3 35bf 7004 ddbe df43 0dbf d3d3 78be
000001a0: 7b30 1dbf 04bf 11be f582 36be 7f96 b63d
000001b0: 4400 b3be 8896 51bd f6ae 6b3e b7f8 6cbe
000001c0: e28c 783e 0fe6 0cbe 2a40 863e bdbd 9dbe
000001d0: 0efd c03e 86a4 b7be abed 093f deb3 d7bd
000001e0: ef6b 723e aebd bdbd 586d 0e3f 6fab 98be
000001f0: 6d8b e43e 5641 1ebd 5718 f73e 6b61 33bd
00000200: 4fc1 303f 0f79 2b3e f596 113f 5c6c b8bd
00000210: f071 403f bff2 553f 05a8 543f e27e 5f3f
00000220: a78a 343f 1d9f 633f bbe8 373f 99c4 433f
00000230: c204 3c3f 0329 303f 5af3 353f e2a4 783f
00000240: 3581 843f f592 1e3f 949c 7e3f e18d 1c3f
00000250: 7e3a 633f 0dc7 4e3f 6d32 2e3f 700a 563f
00000260: cdd0 3a3f 1012 8c3f be08 633e 59dd 893e
00000270: 3712 a33e 6d5b f93e bac6 c63e 5a3c 003f
00000280: a935 d63e 6822 ef3e bc42 423e 326f 963e
00000290: 7537 033f b5df 023e fb80 383e e038 8f3d
000002a0: 34be 813e 5530 9fbc e292 fa3d ded5 193e
000002b0: 7c01 463e fedd 773e db6c bc3e e001 5b3e
000002c0: 8435 76bf a140 b6bf 164e 65bf eea6 b5bf
000002d0: b88c 5cbf e539 9fbf 8724 3bbf 6e5a 6bbf
000002e0: cf1e 3dbf 4f6e 74bf c475 45bf 00a7 95bf
000002f0: ff0e 24bf 0ea4 58bf 5f80 fabe a583 98bf
00000300: 68b7 09bf 5ee5 77bf 26ef d3be 298a 57bf
00000310: 982c 27bf 4c79 52bf cf2b 60bf 68f8 75bf
00000320: fd4f 7abf 0724 4cbf 5bbd 4dbf b2ce edbe
00000330: 97ad 36bf d9c7 4dbf e015 ffbe 0394 12bf
00000340: 9113 04bf 898c 24bf b17f 4abf 242e bebe
00000350: 2abc 01bf 9d6f 17bf 9ad2 36bf a821 d1be
00000360: 52d1 36bf 3b83 84be b45d 2ebf 4c2b 20bf
00000370: 8439 b6be 7f4f 8fbf ccd0 a0be 6586 92bf
00000380: 3fe5 93be f58a 8dbf 5f21 25bf ce33 80bf
00000390: 1afb cfbe b2f9 4fbf 83a2 dbbe f91e 7fbf
000003a0: 3d7e c0be 4c61 85bf 37e7 08bf eef4 21bf
000003b0: f069 1fbf fce4 2dbf fe93 24bf 5ca8 63bf
000003c0: f25f d8be e5f5 23bf f5bd 6dbe 2d2f 71be
000003d0: 7267 9dbd eb2a e9be 07de c4be 5420 03bf
000003e0: bf8b 6fbe eb81 08bf 3fff c2be cd28 86be
000003f0: 1f4d b1bd b1c3 d6be 93b9 b5be e67b 31be
0.061691124 0.13995793 0.1575345 -0.171274 -0.2957026 0.017657505 -0.19124104 0.08817639
-0.011860147 -0.2604456 -0.26182672 0.03208856 -0.12865658 -0.31940383 -0.19949809 -0.15950441
-0.04494656 -0.08770705 0.022586964 -0.3619707 -0.13770942 -0.17522891 1.0231894 1.1467607
1.0043948 1.2251003 1.0077152 1.2208823 0.8776016 1.0446695 0.92364734 0.80684924
1.1781031 0.9833938 0.82972354 0.95371574 0.9496661 0.77082986 1.0608116 0.87344944
1.1405362 1.0292512 1.1166745 0.6660177 -0.34240252 0.9898492 -0.36526495 0.9834579
-0.14510554 1.2460142 -0.49733117 1.3530122 -0.4110736 1.1879992 -0.38418505 0.9796269
-0.060495988 0.9111892 -0.18755357 0.8540097 -0.114145815 1.080359 -0.02931775 0.8722562
-0.39590302 1.0269502 -0.26550227 0.953528 -0.27003422 0.9147773 -0.17197023 0.8088067
-0.08198637 0.75850046 0.09396666 0.94924575 -0.061037537 0.90678936 0.07227091 0.9743497
0.030612169 0.9173989 0.04238221 0.99165654 0.1320037 0.87739295 0.13124241 1.0093713
-0.7494757 -0.41295063 -0.71767163 -0.3854444 -0.9112187 -0.515755 -0.73110485 -0.53453296
-0.49010903 -0.4185236 -0.7554198 -0.41793206 -0.7102621 -0.43167448 -0.5518169 -0.24299555
-0.614021 -0.14233023 -0.17823394 0.089154236 -0.3496114 -0.05116895 0.23015961 -0.23141752
0.24272493 -0.13759635 0.26220828 -0.3080882 0.37693065 -0.3586771 0.5387828 -0.10532354
0.23673986 -0.09264694 0.55635595 -0.29818293 0.44637623 -0.038636528 0.48260757 -0.043794077
0.69044966 0.16745399 0.5687097 -0.09005043 0.75173855 0.83573526 0.8306888 0.8730298
0.70524067 0.8891466 0.71839494 0.7647186 0.7344476 0.6881258 0.7107445 0.9712659
1.0351931 0.6194299 0.9945767 0.6115399 0.88761127 0.8077248 0.68045694 0.83609676
0.72974855 1.0943012 0.22171304 0.26926687 0.31849834 0.48702565 0.3882349 0.5009209
0.41837814 0.46705937 0.1897077 0.2938171 0.51256496 0.1278065 0.18017952 0.0699327
0.25340426 -0.019432226 0.12235047 0.1502299 0.19336504 0.24205777 0.368018 0.21387434
-0.9617541 -1.4238473 -0.89572275 -1.4191568 -0.8615222 -1.2439543 -0.7310261 -0.9193486
-0.73875135 -0.9548082 -0.7713282 -1.1691589 -0.6408538 -0.8462533 -0.48926064 -1.1915175
-0.5379548 -0.9683436 -0.41393393 -0.8419519 -0.6530242 -0.82216334 -0.87566847 -0.9608216
-0.977783 -0.79742473 -0.8036706 -0.46446759 -0.7135863 -0.8038307 -0.49821377 -0.572571
-0.51592356 -0.6427694 -0.7910109 -0.37144578 -0.5067774 -0.59154683 -0.714151 -0.4084599
-0.7141315 -0.2588137 -0.6811173 -0.62566066 -0.35590756 -1.1196135 -0.314093 -1.1447264
-0.28885838 -1.1058031 -0.64504045 -1.001581 -0.40621263 -0.8124038 -0.42897424 -0.99656636
-0.37596312 -1.0420318 -0.53477806 -0.6326436 -0.6227102 -0.6792753 -0.6428832 -0.8892877
-0.422607 -0.6404708 -0.23216994 -0.23553152 -0.07685746 -0.45540556 -0.38450643 -0.51221204
-0.23393153 -0.5332324 -0.38085362 -0.26203004 -0.08657288 -0.41946176 -0.35493144 -0.1733242

arith.constant19 f4 [16, 1, 3, 4]
00000000: a5d2 e0bf a7c8 e1bf 55a7 d8bf ac8f a1bf
00000010: 05f0 d7bf 4045 b8bf 89ab d3bf 6c4a 9fbf
00000020: 41a5 d8bf 666a c2bf 5c17 d4bf 5384 a0bf
00000030: 0202 2fbf 36f3 c6bf 8956 66bf ab9d c0bf
00000040: fe1a 18bf b5c8 c1bf 61cb 43bf 1154 e3bf
00000050: cbd8 5dbf 5f5e d9bf dfed f2be e544 e7bf
00000060: 0bfb 17bf f7d9 61bf 4c85 04c0 1d68 eabf
00000070: beb6 68bf 4ba5 7cbf ceef 04c0 1256 dfbf
00000080: 2d32 49bf cf3f 54bf c362 03c0 aff7 0ac0
00000090: beb2 f0bf dbeb debf b94f bfbf e8b2 a3bf
000000a0: b7b4 f0bf b266 dfbf 3105 afbf 5ea4 90bf
000000b0: bf02 f7bf 8b34 e5bf dbca d9bf 2fe0 87bf
000000c0: ff46 8abf df66 d2bf 015a dbbf 9528 a7bf
000000d0: 30d7 95bf e50b e8bf 2481 bebf 548c d1bf
000000e0: 21bc c2bf 8856 acbf ada5 b5bf d8a4 d0bf
000000f0: 5933 c1bf e81a babf ba64 cabf 97d2 b2bf
00000100: 8ed0 a2bf 325a 95bf 1627 7fbf 84ce 6dbf
00000110: a021 c0bf 192a 96bf d84c 96bf ac38 9bbf
00000120: 7146 94bf 63cc bdbf 0917 c7bf 044c dcbf
00000130: 10ea 9cbf f102 babf c6c4 c2bf 5339 cebf
00000140: e105 82bf f5f8 f3bf cfbe c8bf b61a a3bf
00000150: 1c4c c1bf 81d9 32bf 5880 e0bf fe96 a4bf
00000160: 70b0 9bbf e56d 9ebe 7047 d3bf 285d d4bf
00000170: 42ec 90bf 4040 e8be d2b9 cbbf d5f0 dfbf
00000180: 477f 0b40 318d cbbf ce92 d5bf 9b16 c6bf
00000190: e430 d63f 7e24 cebf 47e1 b2bf b2d8 97bf
000001a0: 3dc7 0940 9e86 b0bf 0f02 acbf ad33 cfbf
000001b0: 93f5 0040 6643 53bf a52f 8ebf 0b4c 99bf
000001c0: ef38 d13f a22c 83bf b738 6abf 7c22 51bf
000001d0: 523d fd3f 1e9f 92bf 96a3 aebf 3bd2 80bf
000001e0: b99f 1a3f ca78 83bf 9261 a9bf fb44 a83f
000001f0: e8d9 7d3f 293d 71bf 78d6 b2bf 409a a23f
00000200: 547e 6a3f bcf5 95bf 21ab b1bf 2def bd3f
00000210: 5898 6dbf f7f8 a4bf 16af 81bf 3bdd 873f
00000220: b6de 8dbf 46f0 94bf 62ef acbf 0951 813f
00000230: d413 b0bf 96e0 97bf 0144 9ebf d8de 883f
00000240: dced 9a3e dd94 1cc0 c9f9 0dc0 6d8f 12c0
00000250: eddd dc3e c1c2 08c0 efd8 21c0 f03b 0fc0
00000260: c258 4a3e 93e2 05c0 c6b1 0bc0 9834 03c0
00000270: 8c9e d8bf 3c7c b9bf 47c6 d23f d20c d6bf
00000280: 7193 c0bf a3e6 e3bf da71 f23f 7fc5 e5bf
00000290: 6076 debf f4de c5bf dfa1 c13f baf2 e0bf
000002a0: 2045 babf 682d e9bf 705c b9bf 95c6 03c0
000002b0: 268f c6bf 38de fbbf 4b6f e4bf bbcc d2bf
000002c0: bd4b c5bf 911e dcbf 240b babf c1fe d8bf
000002d0: da37 df3f e67c c0bf e8ef 923f 273d b8bf
000002e0: e8aa f43f 90fc c1bf d3d1 643f d72b ccbf
000002f0: a375 c23f 5484 98bf 97b3 983f b839 d4bf
-1.7564284 -1.7639359 -1.6926066 -1.262197 -1.6870123 -1.4396133 -1.6536723 -1.2444587
-1.6925431 -1.518872 -1.6569629 -1.2540382 -0.6836244 -1.5542972 -0.8997579 -1.5048116
-0.59416187 -1.5139376 -0.76482207 -1.776003 -0.86658925 -1.6981925 -0.47447106 -1.80679
-0.59367436 -0.8822321 -2.0706358 -1.8313023 -0.9090384 -0.9868972 -2.0771365 -1.7448142
-0.7859219 -0.82909864 -2.052903 -2.1713674 -1.8804548 -1.7415727 -1.4946204 -1.2788973
-1.880515 -1.7453215 -1.3673459 -1.1300161 -1.9297713 -1.790666 -1.7015032 -1.061529
-1.0802916 -1.6437644 -1.7136842 -1.305926 -1.1706295 -1.812863 -1.488316 -1.637095
-1.5213662 -1.3463907 -1.4191185 -1.6300306 -1.5093795 -1.4539461 -1.5811989 -1.3970517
-1.2719896 -1.166815 -0.99669015 -0.9289324 -1.5010262 -1.1731597 -1.1742201 -1.212667
-1.1583997 -1.4827999 -1.5553905 -1.7210698 -1.225893 -1.4532148 -1.52163 -1.6111244
-1.0158044 -1.9060351 -1.568323 -1.2742527 -1.5101352 -0.69863135 -1.7539167 -1.2858579
-1.216322 -0.30943218 -1.6506176 -1.6590929 -1.13221 -0.4536152 -1.5916083 -1.7495371
2.1796434 -1.5902463 -1.6685426 -1.5475649 1.673367 -1.6104887 -1.3974999 -1.1863005
2.1527855 -1.3791082 -1.3438128 -1.6187645 2.0149887 -0.82524717 -1.110829 -1.1976331
1.63455 -1.0247996 -0.9149279 -0.81693244 1.9784338 -1.1454809 -1.3643672 -1.0064157
0.6039997 -1.0271237 -1.3232901 1.3146051 0.99160624 -0.9423395 -1.3971701 1.2703323
0.9159901 -1.1715617 -1.3880349 1.4838616 -0.92810583 -1.2888478 -1.0131557 1.0614389
-1.1083591 -1.1635826 -1.3510554 1.0102855 -1.3756051 -1.1865413 -1.2364503 1.0693007
0.30259597 -2.446586 -2.2183707 -2.290004 0.43138066 -2.1368868 -2.5288656 -2.2380333
0.19760421 -2.091954 -2.1827254 -2.050085 -1.6923385 -1.4491038 1.646676 -1.6722662
-1.5044996 -1.780476 1.8940995 -1.7950896 -1.7379875 -1.5458665 1.5127524 -1.7574074
-1.4552345 -1.8216982 -1.4481335 -2.0589955 -1.5512435 -1.9677191 -1.7846464 -1.6468729
-1.5413738 -1.7196828 -1.453465 -1.6952745 1.743892 -1.5038116 1.1479464 -1.4393662
1.9114656 -1.5155201 0.89382666 -1.5950879 1.519215 -1.1915383 1.1929806 -1.6580114

arith.constant20 f4 [64, 1, 1, 32]
00000000: bc63 83bd 660c 71be b107 97bd eec2 0b3e
00000010: 4b41 5ebc a676 3e3e 7c39 433e 8968 18bd
00000020: c124 a13d 27a5 75be eedd 2abe 066e 4bbc
00000030: b0cb f0bd ee8a 21be 83e8 12be 37c2 43be
00000040: 79b6 553f 913e 363f 3ded 0c3f 5f1a 513f
00000050: f1ba 0f3f 50b4 203f 6e38 463f b7dd 4d3f
00000060: cf2f 703f 52d8 af3f b27b c13f 30a0 b23f
00000070: 97b2 a13f 40c2 533f 5a96 053f 5cc4 bf3e
00000080: eab4 cabe 1af0 aebe 3f38 bdbe 9976 3bbd
00000090: b6dd dcbd 1e48 3a3d 02b2 7bbd 3648 d4bd
000000a0: 6fd8 b8bd 5fde 83be 5275 b13b 26f7 00be
000000b0: 3c7c da3c b18f 78be 13c9 3ebe ac6e b7bd
000000c0: ba4b 473f 1446 2c3f faca 313f 4c36 393f
000000d0: dcbd 073f 7971 5a3f 40f7 453f 9fd3 5d3f
000000e0: dbd3 893f 3aed b83f 874d bd3f 816f a53f
000000f0: c796 9e3f f439 633f 167a 2f3f 75ab ce3e
00000100: 3200 5fbe a51e 203d 30fc 99be 0f63 33be
00000110: 6c72 0fbd 2253 b13d 8ae9 48bd 3274 d43d
00000120: 8c4f 853e 9334 c23d 5355 433d a44d 9bbc
00000130: e823 f0bd ef42 85bd 0fcc 8ebe b2fc 69be
00000140: 6038 3a3f 672a 573f c4b7 4d3f 6b4b 7a3f
00000150: b842 573f 0b36 763f baa9 423f f786 803f
00000160: 6386 8f3f 2ccc bb3f 2df5 b33f 14cb b13f
00000170: df27 cc3f 7eed 903f 0c52 6f3f f3d0 1c3f
00000180: 21e0 f33e 6e0a 183f 3625 343f b6da 0c3f
00000190: 5001 003f cddd 4d3f e57b 5e3f f02d 643f
000001a0: 898d 403f 8845 5b3f d422 0f3f c0ec 1c3f
000001b0: c9fc 0a3f a72c 023f c45d 793e c8c4 9c3e
000001c0: b74f 283f b836 383f 38ff 063f 4102 353f
000001d0: 57bb 443f 5dea 283f 7c54 323f 1365 333f
000001e0: a58c 7d3f be71 893f c78a bc3f 573d a63f
000001f0: 3687 963f 8d7a 503f d536 fb3e f21c d83e
00000200: dc66 093e f83d fcbd 2981 b2be 4f9f 91bd
00000210: 1f75 b6be a2fb 7f3e 1029 883d d335 c63c
00000220: f443 81bc c85a 253d 7fb1 8b3d 8b87 383e
00000230: a777 643e d708 aabf 36b2 643f 6d3e bb3d
00000240: f288 c5bd 2589 b7bd 0378 b53e 9d26 7d3d
00000250: f22b 093f dd9d 0e3e bced f73e f70d 493e
00000260: 9a2e 683d e454 1abf 0cdd 42bf e4ac 56bf
00000270: de4d 123f ae8d c93d dc37 3f3e 626d 06be
00000280: be4d de3f 7737 b33f 0802 bf3f 1724 c03f
00000290: 3ef1 9b3f 97da bb3f 8b73 d23f 99c6 e63f
000002a0: 27f1 1b40 e6c9 3140 5883 3940 4fce 3a40
000002b0: 9e03 f53f 8cd2 e23f b15b ae3f a657 c33f
000002c0: 3efc 843f d34d 8a3f b537 ff3e 1651 413f
000002d0: 4813 c33e 1614 3a3f 56fb 213f 626d 9b3f
000002e0: f044 c23f 11aa 0940 9a34 1c40 527d ff3f
000002f0: a3bc 603f 212c 4f3f 9779 0f3f 5b7c 803f
00000300: 91f1 90be dd9f 7e3d 6121 c33e 3f93 a53d
00000310: ae43 f83e c010 4cbe b9e0 06be ad4c 92bd
00000320: 5a8d f7ba d67c a0bd 5b9d 23bd a1ab 453f
00000330: a183 93bf 6b4a a23e f663 6abd 480c 413c
00000340: a1c0 a7be b483 f9bd a164 2a3e 4c4f 523e
00000350: dc9b f53e 941a 743e 6d9d da3e cbe9 943e
00000360: af77 92bd 1333 07bf ea5e 78bf 42e5 cbbe
00000370: 77f3 a8bd ce0a f43e ab1d 023f 3f90 a53e
00000380: 7abb afbd 263f 56be b6a8 fc3d 8876 1c3e
00000390: 359c 1fbd 72ab 81bd 728b 1f3e 2db9 e63d
000003a0: 26f6 8e3e f419 ba3e 8a5a 8b3e 2651 733e
000003b0: bdf7 5cbd c1dd c1bd c7a3 04be 9bc4 8e3d
000003c0: 9040 af3f f3c6 903f 05ee 683f d48e 803f
000003d0: 694a 403f 3693 6f3f 19ae 893f 26ee b03f
000003e0: a62c e53f 0789 1540 4880 2a40 841b 1640
000003f0: 6d33 a53f 0333 a03f 7787 9a3f dc6c ae3f
-0.06415507 -0.23539886 -0.07374514 0.13648579 -0.013565372 0.18599948 0.19064897 -0.037209067
0.078683384 -0.23988782 -0.16686222 -0.012416368 -0.117576 -0.15775654 -0.14346509 -0.19117056
0.83481556 0.7118922 0.55049497 0.81680864 0.56144625 0.62775135 0.77429855 0.80416435
0.9382295 1.3737891 1.5115874 1.3955135 1.2632626 0.82718277 0.52182543 0.37454498
-0.3959115 -0.34167558 -0.36956975 -0.0457674 -0.107844755 0.045478933 -0.06144906 -0.10365336
-0.090256564 -0.25755593 0.005415597 -0.1259428 0.026670568 -0.24273564 -0.18631391 -0.08956656
0.77849925 0.6729443 0.6945034 0.72348475 0.5302408 0.85329396 0.773304 0.86651033
1.0767778 1.4447396 1.4789284 1.2924653 1.2389764 0.88760304 0.68545663 0.40365186
-0.21777418 0.039091725 -0.30075216 -0.17518257 -0.03502123 0.086584345 -0.049050845 0.10373725
0.26037252 0.09482684 0.047688793 -0.01895792 -0.117255986 -0.06506907 -0.2789006 -0.22850302
0.7274227 0.84049076 0.8035853 0.9777133 0.8408618 0.96176213 0.7604023 1.0041188
1.1212887 1.4671683 1.4059197 1.38901 1.5949668 1.1322477 0.9348457 0.6125633
0.47631934 0.59390914 0.7036928 0.55021226 0.50002 0.80416566 0.869078 0.89132595
0.75215966 0.8565297 0.5591252 0.6129875 0.5429197 0.50849384 0.24352175 0.30618882
0.65746635 0.71958494 0.5273318 0.70706564 0.7684836 0.6598261 0.6966016 0.700761
0.9904273 1.0737836 1.4729851 1.298747 1.1760013 0.81437 0.4906527 0.42209584
0.13418144 -0.12316507 -0.34864166 -0.07110464 -0.3563623 0.24998334 0.06648457 0.024195587
-0.015779473 0.04036978 0.06820964 0.18020456 0.22311269 -1.3283948 0.8933443 0.09142766
-0.09645261 -0.08961705 0.35443124 0.061804403 0.5358268 0.13927408 0.48423564 0.19634233
0.056685068 -0.6028578 -0.7611854 -0.8385756 0.57150066 0.098414764 0.18673652 -0.13127664
1.7367475 1.4001302 1.4922495 1.5011014 1.2182996 1.4676083 1.6441511 1.8029357
2.4365938 2.777948 2.8986416 2.918842 1.9141729 1.7720504 1.3621732 1.5261123
1.0389478 1.0805 0.4984719 0.7551435 0.38100648 0.726869 0.63274133 1.2142756
1.5177288 2.151005 2.4407105 1.996012 0.87787837 0.8092671 0.56044906 1.003795
-0.283093 0.062164176 0.38111404 0.080847256 0.48489136 -0.19928265 -0.13171662 -0.07143531
-0.001888673 -0.078363106 -0.039944988 0.7721501 -1.1524545 0.316974 -0.057224236 0.011782713
-0.32764152 -0.121833235 0.1663995 0.20538062 0.47970474 0.23838264 0.4269823 0.2908462
-0.07151734 -0.5281231 -0.9701983 -0.39823347 -0.08249562 0.47664493 0.5082652 0.32336614
-0.0858068 -0.20922527 0.123368666 0.15279591 -0.03896733 -0.06331529 0.15580538 0.11265788
0.2792217 0.36347926 0.27217513 0.23761424 -0.0539472 -0.09466124 -0.12953101 0.06971093
1.3691578 1.1310714 0.9098819 1.0043588 0.7511354 0.93584 1.0756255 1.3822677
1.7904251 2.3364885 2.6640797 2.3454294 1.2906319 1.2515568 1.207259 1.3626971

arith.constant21 f4 [16, 1, 1, 32]
00000000: 3a3b 65bd 8995 493d 6000 cd3d 1b2d 9ebc
00000010: 9d2b a4be 818d 78be 72de 63be 3953 7dbe
00000020: 43f8 8cbe f868 29be 91bc d63c b5ae d33c
00000030: 1e27 513d d6d3 003d 9172 fd3c 0e68 ae3c
00000040: 176c 093e 387f 6b3e 75e8 623e 05a8 143e
00000050: e62a 8c3e d3bd 313e 2bcc 933e bf95 883e
00000060: 1d61 d13d 8981 f6bd d1e1 4fbe e0f9 a2be
00000070: 1a4f 22be ce87 e3bd 9de7 5cbd 0430 e03d
00000080: 14be 10be e52f fabd 53fb afbd 3c0c c63e
00000090: 843b 4f3f ff02 3c3f 8386 2a3e 87ac 313d
000000a0: 419d 13bd a5bc 85bd 85bc 90bd 0c93 0cbc
000000b0: 7c12 da3d 4853 4a3e 5be6 a43d 7a61 43bb
000000c0: e42d aa3e eaa3 a23e b003 0e3e e2a5 67be
000000d0: 5a96 d3be a6ff 98be 2f28 20bd 3dde a2bb
000000e0: ce52 4c3e 97f2 3a3e aa53 473d d68c 713d
000000f0: 3f6f 843d 1d6a 2d3c 7dcf 2ebc d2e0 2b3e
00000100: d597 99bd de10 30be ea9e e4be d62c 11bf
00000110: 362d 0bbf 3205 66be 0c79 a2bc 7611 8d3e
00000120: b8d9 d83e 2a7b d33e 2dde 563e 66e4 793d
00000130: 1883 08be 9a69 a8bc 5e99 02be b5d5 9a3b
00000140: c7a2 893d 4aae 6c3d d604 f3bd 3fbc cebd
00000150: 1d1e bc3d fa8e 773e b9b1 0a3e c88a d6bc
00000160: bf5c c73d 2674 1a3d f5d3 023e 7c54 7abd
00000170: 152d 2fbd 2134 c8bd 63d5 89bd 8417 b63b
00000180: 8603 ffbd 5f0c ccbd fe25 7dbe d019 85be
00000190: 4788 36bd ca33 1b3e 10fd a7bc 3745 cfbb
000001a0: fa31 243d 1840 bb3b e13b febd d050 68be
000001b0: 4084 da3d e89f 673e 208b a03e 2759 693d
000001c0: 6e0a dd3d af37 96be 95d6 1ebf 1d42 97be
000001d0: 44c7 b63d 9cea 1c3e 4585 073e ace1 a03d
000001e0: f276 133d 8b73 e23c d91c 66be fdf1 52be
000001f0: 0d11 c0bd 399d 0a3d 7b91 863e b5be 743e
00000200: 2d97 00be a2c8 efbd c2c1 a2bd 4ddb 51bd
00000210: 2a62 913d f69d b53e 3ed5 103f 35a6 073f
00000220: 80c7 463e 8c75 fdbd 84bc e4bd 80cc 41be
00000230: de7a 35be 378a 97be ad81 86bd 45f8 8cbd
00000240: a68f bebd f9be c8bd 8d3d 953c 4b42 db3d
00000250: 5292 77bc a9c1 563e f078 983e 35f1 e63e
00000260: 7cd3 c23d fe2f 09be 20bc e4bd 3f45 64bd
00000270: eeb0 143c 3bff 4f3d ed90 0f3e c3fe c63d
00000280: 2337 a0be fe30 83be 9c37 493e 273a 073f
00000290: 4a29 923e 3690 b4be 392e 49bc d2f7 4f3e
000002a0: 8b4d ac3c 598f 72bd 6175 c03d e4f8 c93d
000002b0: 6bba 18bd b262 0cbe 4e87 783e cec7 adbc
000002c0: 0b5b 97bd cbea 313d 3785 7b3e 3317 9c3e
000002d0: 4b6e f43b b403 9a3d 8ead 35be 8ba7 45be
000002e0: 2613 69be 90fc 52be 1711 243e a110 033e
000002f0: 32bc bdbc e34e fcbd 9857 f1bd 952d 4bbd
00000300: fad1 d9bc be24 1abd 8aa0 9e3d 72d9 ed3d
00000310: 4d57 c33e aaa7 d33e 9ca3 203e 4f1b 90be
00000320: 94ac 96bc 80a2 3b3e ee30 843e 8508 173e
00000330: d036 e73d 1793 07bc e0ed 063d 3b31 02be
00000340: 54f3 4ebc bde4 403d 21a8 143e 2d3f 733e
00000350: 3013 983e c95c a73e 7367 e63d f490 f33b
00000360: bbc2 f63d fab6 e63d 5687 443e 0299 0b3e
00000370: 2239 1d3e 006e 243d 1143 10bd d076 16be
00000380: 128c 82bd 5162 48bd 0cc7 ac3d b923 513d
00000390: a257 9a3e 8da2 883b b0fe 46be 6afd f3be
000003a0: ae98 e7be 1237 53be 90ce 093f 965d 053f
000003b0: 2040 213e 95a9 f539 d4ea 6abe dff7 e53c
000003c0: cc46 e8bd f3ca c1bd d5b4 133c 31cd b5bd
000003d0: d595 b0bd 4d6d 03be 0eb7 84bc 1c21 b0bd
000003e0: 482e 79bd 7669 01bd b528 163e d0eb 273e
000003f0: 00fe c83d e20d ef3d 0f38 c9bd cfd1 cbbd
-0.055964686 0.049214873 0.10009837 -0.019308617 -0.32064524 -0.2427273 -0.22252825 -0.24738778
-0.2753316 -0.16543949 0.026212962 0.025840143 0.051062696 0.031452022 0.030938419 0.021289852
0.13420139 0.22997749 0.22158988 0.1451722 0.2737648 0.17357568 0.28866705 0.26676747
0.10223601 -0.120364256 -0.20300986 -0.31831264 -0.15850487 -0.11109887 -0.05393182 0.10946658
-0.14135009 -0.122161664 -0.08592858 0.3868121 0.8095019 0.7344207 0.16652875 0.043377426
-0.03603864 -0.06530122 -0.07067207 -0.008579981 0.10648057 0.19758332 0.08051749 -0.002981274
0.33238137 0.31765682 0.13868594 -0.22621873 -0.41325647 -0.29882544 -0.039100822 -0.0049703405
0.19953462 0.18256603 0.048663773 0.058972202 0.06466531 0.010584381 -0.010669586 0.16784981
-0.07499663 -0.17193934 -0.44652492 -0.5670904 -0.5436586 -0.2246292 -0.01983311 0.27552384
0.42353606 0.41304904 0.20983191 0.061008833 -0.13331258 -0.020558167 -0.12753817 0.004725183
0.067205004 0.057783403 -0.11866157 -0.10094499 0.09185431 0.24175635 0.13544358 -0.026189223
0.09734487 0.037708424 0.12776168 -0.061115727 -0.042767603 -0.09775568 -0.067301534 0.0055570025
-0.12451844 -0.09963297 -0.24721524 -0.25996256 -0.044563558 0.15156475 -0.020506412 -0.0063253897
0.040086724 0.0057144277 -0.12413765 -0.22687078 0.10669756 0.22619593 0.31356144 0.056969788
0.10793005 -0.29339358 -0.62046176 -0.29542628 0.08924726 0.15323871 0.13234432 0.078555435
0.036002107 0.027642986 -0.22471942 -0.20600124 -0.09378252 0.033841345 0.26282868 0.23900874
-0.12557669 -0.117081895 -0.079471126 -0.051234532 0.070988014 0.35472077 0.5657538 0.52987987
0.1941204 -0.12375936 -0.11168769 -0.18925667 -0.17722651 -0.29597637 -0.065677024 -0.06883291
-0.093047425 -0.0980205 0.018217826 0.10706004 -0.015110569 0.20972313 0.29779768 0.451059
0.09512994 -0.13397214 -0.111686945 -0.0557301 0.009075386 0.050780516 0.14020129 0.09716561
-0.31292066 -0.25623316 0.1965012 0.5282311 0.28547126 -0.35266274 -0.012279087 0.2030938
0.02103307 -0.05921874 0.09397388 0.09861925 -0.037287157 -0.13709524 0.24270365 -0.021213438
-0.07390412 0.043436807 0.24562536 0.3048645 0.007459437 0.075202376 -0.17741987 -0.19302194
-0.22761211 -0.20604157 0.16022144 0.12799312 -0.023161028 -0.12319734 -0.11784285 -0.049604017
-0.026589382 -0.037632696 0.07745464 0.1161374 0.38152543 0.41338855 0.15687412 -0.28145835
-0.018392839 0.18323708 0.2581858 0.14749344 0.112897515 -0.008274815 0.0329417 -0.12714092
-0.012631256 0.04709314 0.14517261 0.23754568 0.2970214 0.32687977 0.112502 0.0074330512
0.12048861 0.11265369 0.19192252 0.13632587 0.15353826 0.040143967 -0.03522021 -0.14693761
-0.063743725 -0.048921887 0.08436403 0.05105946 0.30144984 0.004169768 -0.19433093 -0.47654277
-0.45233673 -0.20626476 0.53830814 0.52095926 0.15747118 0.0004685639 -0.22941142 0.028072296
-0.113416284 -0.094625376 0.009015282 -0.08877028 -0.08622328 -0.12834664 -0.016200569 -0.08600065
-0.060835153 -0.031594716 0.14663966 0.16398549 0.09814072 0.1167257 -0.098251455 -0.09952127
