mini/LLZ/model_data.tflite (tflite, 120464 bytes, 21 tensors)

arith.constant f4 [9]
00000000: 74f2 44be 6076 c93d 383c dcbd c7ff 2a3d
00000010: 8213 11bf bb24 c93d 08ce d0be 3bcb 8cbe
00000020: 7cf2 f0be
-0.19233114 0.09837031 -0.10753673 0.041747835 -0.5667039 0.09821459 -0.4078219 -0.27498803
-0.4706

arith.constant1 f4 [32]
00000000: df4e ccbb a9d2 9fbd 9678 ed3c e34b 773e
00000010: b4cf 153e 26b1 3fbd a6d4 0f3c 28bb 01bc
00000020: dffd 12be 17fe df3b 4166 47bc 4504 bebc
00000030: 016f 323a b2cc c93d e6f6 d9bd 3884 02be
00000040: e950 27bb 33f3 8fbd 1883 d0bd af70 70bd
00000050: 34a9 6cbd 00da eabd f1c1 dabc 31d1 083e
00000060: ba95 0b3d 68de 6e3e 97fe 973d 54bb 3dbc
00000070: c92c a73d cb70 eebd d166 ef3c 0369 2a3d
-0.006234988 -0.07803852 0.028988164 0.24150042 0.14630014 -0.0467998 0.008778727 -0.007918157
-0.14354657 0.00683571 -0.012170375 -0.023195395 0.0006806702 0.09853496 -0.10642795 -0.1274575
-0.0025530404 -0.070288084 -0.10181254 -0.058701213 -0.057778552 -0.114673615 -0.026703807 0.1336105
0.034078337 0.23327029 0.07421606 -0.011580307 0.08162839 -0.11642607 0.029223831 0.041604053

arith.constant2 f4 [32]
00000000: c4b9 3abe f306 ab3e 006f 04bd 891a 42be
00000010: 8881 243d db72 063c faec 40be 1a74 30ba
00000020: c1ab 56be 6c76 31be f0b9 7fba 9800 9ebd
00000030: 32ce b5be b205 fa3d 4f1f dbbd 974d 2fbe
00000040: bb09 633e f867 10bd f607 5cbe 5840 3b3e
00000050: 1138 2e3e 4b12 a2bd 45cf 42be 89ca b2bd
00000060: d9ff 87be a801 81be ae94 ecbc 855f 52be
00000070: ee2f f83c f79a 923d 8527 acbd e9cb c3bd
-0.18234926 0.3340374 -0.03233242 -0.18955435 0.040162593 0.008206095 -0.188404 -0.00067311677
-0.20963956 -0.1733033 -0.0009755185 -0.07714957 -0.35508877 0.122081175 -0.10699331 -0.17119442
0.2217168 -0.035255402 -0.21487412 0.18286264 0.17013575 -0.07913645 -0.1902438 -0.08730037
-0.26562384 -0.25196576 -0.02887949 -0.2054425 0.030296292 0.071584634 -0.08405975 -0.09560377

arith.constant3 f4 [32]
00000000: dca6 b53f d0a7 473f 5b73 383f 9022 993f
00000010: c271 673f ff71 473f 3125 3a3f a423 b53f
00000020: 8d35 993f 0091 833f 5397 743f 2523 a63f
00000030: 50c8 9d3f 6f45 5d3f 05d9 a53f b76f 843f
00000040: 6d1d 0b3f 4acb d73f 4f14 8c3f 4ded e63e
00000050: 7aaa 5c3f 5e74 a93f be0a c53f 1a8f ab3f
00000060: 83f8 703f 08e3 303f 224f 8e3f 7990 bc3f
00000070: 5a77 773f fbd8 6f3f 7bff b03f b9b1 913f
1.4191546 0.77990437 0.7205102 1.1963673 0.90407956 0.7790832 0.72713 1.4151502
1.1969467 1.0278625 0.955434 1.2979475 1.2326756 0.8643407 1.2956854 1.0346593
0.54341775 1.6858914 1.0943698 0.4510292 0.86197627 1.3238637 1.5393903 1.3403046
0.941292 0.6909642 1.11179 1.473159 0.9666649 0.9369046 1.3827966 1.1382362

arith.constant4 f4 [32]
00000000: fe1b 2ebe 10f2 24bd 5189 503e b3cd 313d
00000010: 3c29 27bc f067 e8bd b3d7 59bc e2fe b43d
00000020: 6d14 d13c 5376 db3c 9714 833c 984c d83c
00000030: 900c cdbd 5a08 183e e6c3 81be 30db 983c
00000040: 48f3 33be 4971 08be c763 6cbd 6c28 b33d
00000050: e254 713e 1188 1dbe 7177 8b3d 9679 903d
00000060: 6023 63be ffe5 c1bd b082 b43c a396 7abc
00000070: 27bf 1abd 9c0e 57bd fb7f 023e 005c 2d3e
-0.17002866 -0.04026991 0.20364882 0.04340906 -0.010202702 -0.113479495 -0.013296056 0.088376775
0.025522435 0.02678982 0.016001029 0.02640371 -0.10012162 0.14846936 -0.2534477 0.018659204
-0.17573273 -0.13324465 -0.057712343 0.08747944 0.23567536 -0.15383936 0.06809891 0.07054441
-0.22181463 -0.094676964 0.022034973 -0.015294704 -0.037779953 -0.052504167 0.12744133 0.16929626

arith.constant5 f4 [32]
00000000: 4bcb dd3d ee8a a3bd a35b 673e 3f5b 0abe
00000010: ed3b f53d 0b77 013e 2a40 f0bd c6c5 333e
00000020: 92ff d33c f9f4 1b3e e3ba 68bd 6cfc 683e
00000030: d026 ecbe 5705 bcbe 367f 1d3e ec88 183e
00000040: f58c 0ebe 29f6 19bc be23 5dbc fd2e 72be
00000050: 84fd a43e d817 18be 454c 9c3c c06d b6be
00000060: 52e6 80be 88db 75be 94c3 51be 82b4 f13c
00000070: b9de de3d e9de cbbc d902 b63d 1f83 89bd
0.10829791 -0.07985483 0.2259355 -0.1351137 0.119743206 0.12643068 -0.11730988 0.17555913
0.025878701 0.15230168 -0.056818854 0.22752541 -0.46123362 -0.36722824 0.15380558 0.14895982
-0.13920958 -0.009397068 -0.013497291 -0.23650737 0.32224667 -0.14852846 0.019079337 -0.35630608
-0.2517572 -0.24009526 -0.20484763 0.029505018 0.10882325 -0.024886565 0.08887262 -0.067144625

arith.constant6 f4 [32]
00000000: 0499 743f 50ef 893f cb53 503f d4a1 903f
00000010: c430 783f 9fbe 7d3f 71eb c03f 5165 913f
00000020: 5575 b83f 3983 943f 7dbc 8e3f 6c50 1b3f
00000030: 359c 6f3f 4d8f 8d3f 78fa 793f 1820 ba3f
00000040: 44a6 7e3f 0426 833f 465d 893f b521 823f
00000050: adc0 823f d8db 513f 5155 b43f d3c8 b33f
00000060: b7bf ca3f bda7 a43f e86e 643f 124a 853f
00000070: 6d50 cd3f 5c41 433f 40d1 8e3f 7838 693f
0.95545983 1.0776157 0.8137786 1.1299386 0.9694941 0.9911899 1.5071851 1.1359044
1.4410807 1.1602546 1.1151272 0.6066959 0.9359773 1.1059357 0.9764781 1.4541044
0.9947245 1.0245976 1.073159 1.0166537 1.021505 0.8197608 1.4088537 1.4045662
1.5839757 1.286369 0.8923173 1.041323 1.6040169 0.76271605 1.1157608 0.9110179

arith.constant7 f4 [9, 32]
00000000: b757 683e 2cd9 e1bd b39d bb3d 367f 0e3f
00000010: 8f02 babe 75db 0cbf f058 4abf e17e 61be
00000020: 7171 b3be de7b 033f 87cb b9be fe88 9f3e
00000030: 76f4 2fbf 09ec 8fbe 12e5 f2be 602e b53e
00000040: 21c4 853f 5740 2c3f a6da 2abf cebc 493e
00000050: ba6b 463f f4ad 073e e267 983e 7656 133f
00000060: b795 ad3e 1bb8 4cbf 0be8 97bd f50c 0fbf
00000070: 9a93 42bf e57d d53e f409 f93d 4309 533e
00000080: f634 05bf 452e 7c3f dc37 29bf 8acf a73e
00000090: 43d1 e8bd b1a7 7f3d eae0 363f 6bf4 efbd
000000a0: 0240 13be b0bc b5bd 3ef1 dc3e 6754 d5be
000000b0: 6f37 093c 2ba1 013f 5ef6 f03d 1223 1b3f
000000c0: 9e56 72be 3e86 c03d 0642 653c 7873 34bf
000000d0: e869 973e f35e b2be 73bb 123e 284e b0be
000000e0: beb5 f63e deaf 903e 1ae5 bbbd 28c2 8ebd
000000f0: 2cbf ecbc 193a 0a3d 266a 183e 234c 1f3e
00000100: 7687 f43e 6a4b bfbe 808b 45be 08ee 753e
00000110: fc54 11bf 9686 22be 8bc9 05bf 5a23 a2be
00000120: 2511 47be 6792 113f d4e3 01bf 6903 8cbe
00000130: 5079 3bbf fe71 05bf f796 bf3e 0b53 c63e
00000140: b70a 7d3f 4866 0e3f 3894 e5be e79d b43e
00000150: 42be 353f 4fb6 363d 0ec4 a23e 6113 063f
00000160: f5db 993e ab00 09bf e00e 75be 9e0e f7be
00000170: ac8b 27bf 5fb1 b43e ac39 953e 0ef6 123e
00000180: d5bd aabe 635d 843f a4cf c9be 9ae7 773e
00000190: 1b31 2a3a 9ef9 17be e8be cc3e 5ccc 94be
000001a0: a278 a1be 4174 cbbd cf9c af3e 9672 c7bd
000001b0: f08a 053c 92da d73e c94d 73bc 50b8 043f
000001c0: e29f afbe d393 013c 0708 c7bd 3423 33bf
000001d0: fce2 f03d a8b0 c7be e4da a93d bf55 f5be
000001e0: 93e2 e13e f79d 223e 0cc0 75be d932 1abe
000001f0: 6de0 d1bd fa46 8dbd 7a50 443d 9c4b 203d
00000200: 2f6c 6cbf 6e4f a83f 7227 dfbe 3928 213f
00000210: 3ac9 c33d aba6 a63e 5ac9 cd3e 53d7 913d
00000220: 8b28 a1be 1593 013f 3e5b 773f f822 29bf
00000230: cfd0 89be 31b9 ae3e 9e46 d83e c4b8 d73e
00000240: ff57 7abe 948b 0a3f 3d97 56be 08ff 48bf
00000250: ccc4 ba3d 2aa2 00bf 55fc 103f 72d2 25bf
00000260: 0126 ca3e d813 a5be e8d3 73bf e42c 753e
00000270: 8fbb debe 0e72 19be 067e 853e b538 bb3e
00000280: 3936 6dbf 47cf 4c3e d744 86bf 278a f5b8
00000290: 8f9f 0ebf beab e53e 74c1 b83d cf73 89be
000002a0: 5272 63be 647c 103f 8872 4d3f ab52 8cbd
000002b0: 5b82 04bf 89dc c0be 9566 2e3f 8f50 363e
000002c0: 7473 283e a2de 373e 7d52 a4be 63a6 80be
000002d0: 37df 103f 1ef8 2abe 561e 133f 2766 f43e
000002e0: 43bf 5c3f 502b 9fbe 9254 0b3e dca3 0e3d
000002f0: e58a 17bf 609a debd 0e11 d33c e360 3c3e
00000300: 3e87 21bf 8fbb 6a3f 2108 1abf acee d23e
00000310: fda2 0cbe 693e 473d bc51 873e 60da 2dbf
00000320: 4e31 48bf d702 253e 54bd 1d3f ebb9 1abe
00000330: 9fef 6dbe 2c8f 293e cbff ef3e c3d6 b63e
00000340: b1c7 3fbd 304f b63b 79cb 813e a01d b2be
00000350: 4385 fb3e 5221 d5be 160e 8e3f 48f2 3ebe
00000360: 99c6 713f e127 19bd a5b4 433e 8138 d1bd
00000370: 1ec6 3bbf 3bee d3bd 6893 35be d022 013f
00000380: 3a76 36bf 3a29 543f d18f c0be 592a 8a3e
00000390: d284 613d 4eaf 6c3d 98ac d33e 85ae 0fbf
000003a0: 9a42 5dbe b6d0 973e ef6c 863f 05eb 59bf
000003b0: 978e e3bb eb59 d7be 3f78 e63d 6232 f33e
000003c0: a8ca 3c3e 71d0 183f 1115 9ebe df1c 2ebf
000003d0: a407 ba3d 969f 47be f618 133f 1b83 923d
000003e0: 37de e63e 8adf 3abe 9679 b5be f7ae 243e
000003f0: fca3 e2be 9df7 5b3e 8564 803e ddff afbe
0.2268971 -0.110277504 0.09160938 0.5566286 -0.36330077 -0.55022365 -0.7904196 -0.22021057
-0.35047486 0.5136088 -0.36288092 0.31159204 -0.6873239 -0.28109768 -0.47440392 0.35386944
1.0450479 0.67285675 -0.6673988 0.1970093 0.7750813 0.13249952 0.29766756 0.57553804
0.33903286 -0.7996842 -0.074173056 -0.55879146 -0.7600647 0.41697612 0.121601015 0.20609002
-0.52033937 0.985081 -0.6610086 0.32775527 -0.113680385 0.062415782 0.7143694 -0.11716541
-0.14379886 -0.0887388 0.43152803 -0.41665956 0.008375033 0.5063655 0.11765741 0.6060039
-0.23665854 0.09400605 0.013992792 -0.7048869 0.29572988 -0.34838066 0.14329319 -0.34434628
0.48185533 0.28259176 -0.09174557 -0.06970626 -0.028899752 0.033746812 0.14884242 0.15556388
0.47759598 -0.37362224 -0.19291496 0.24016583 -0.567703 -0.15871653 -0.52260655 -0.31667596
-0.19440134 0.5686402 -0.50738263 -0.27346352 -0.73231983 -0.52127063 0.37419865 0.38735232
0.98844475 0.5562482 -0.44839644 0.3527672 0.70993435 0.044607457 0.31790203 0.5237332
0.30050626 -0.53516644 -0.23931456 -0.4825334 -0.654475 0.35291573 0.29145563 0.14351675
-0.33347955 1.0340999 -0.3941623 0.24209443 0.00064923026 -0.14841315 0.399894 -0.29062164
-0.31537348 -0.09934283 0.34299323 -0.097386524 0.008150801 0.42158943 -0.014850088 0.5184374
-0.34301668 0.007908779 -0.09718328 -0.6997559 0.11762044 -0.39001966 0.08293703 -0.47916982
0.44118175 0.15880571 -0.23999041 -0.1505846 -0.10247884 -0.06898303 0.04792831 0.039134607
-0.92352575 1.314924 -0.43584782 0.62952 0.09559865 0.32549033 0.40192682 0.07121148
-0.31476244 0.50615054 0.966236 -0.66068983 -0.2691712 0.34125665 0.42241377 0.42133152
-0.2444763 0.5411923 -0.2095613 -0.78514147 0.09119567 -0.5024744 0.5663503 -0.6477424
0.3948212 -0.32241702 -0.9524522 0.23942906 -0.4350247 -0.14984915 0.2607271 0.36566702
-0.9266086 0.20000945 -1.0489758 -0.00011708243 -0.5571222 0.4485759 0.09021273 -0.26846167
-0.22211578 0.56439805 0.80252886 -0.06851705 -0.51761407 -0.37668255 0.6812528 0.17804168
0.16450292 0.17956021 -0.32094184 -0.25126943 0.565906 -0.16696212 0.57468164 0.47734186
0.8622934 -0.31087732 0.1360648 0.034824237 -0.5919631 -0.108692884 0.025764968 0.18396334
-0.6309699 0.9169244 -0.60168654 0.41197717 -0.1373405 0.048643503 0.26429546 -0.6791134
-0.78200233 0.16114365 0.61617017 -0.15109985 -0.2323594 0.16558522 0.46874842 0.35710725
-0.0468213 0.005563639 0.2535055 -0.34788227 0.49125108 -0.41626984 1.1098049 -0.1864711
0.9444366 -0.037391547 0.19111879 -0.102158554 -0.7334918 -0.10348173 -0.17732012 0.50443745
-0.7127415 0.82875407 -0.37609723 0.26985434 0.055058308 0.05778437 0.41342616 -0.5612567
-0.21607438 0.2965142 1.0501994 -0.85124236 -0.0069444883 -0.4206079 0.11253404 0.47499377
0.18436682 0.59693056 -0.30875447 -0.68012804 0.090834886 -0.19494471 0.5745996 0.07153913
0.4509141 -0.18249336 -0.35444325 0.16082369 -0.44265735 0.21481176 0.2507669 -0.34374896

arith.constant8 f4 [32, 32]
00000000: 640a 35bd 8853 1bbd a18c 68be b5a0 7bbd
00000010: d87a 113e 5f51 59b8 a373 7bbe b2cb 053e
00000020: 4e5a 81bd 5458 94bd 2913 073e c5d7 2d3e
00000030: 7c9c f0bd 30f7 903d c267 c03d d99b 023e
00000040: f6e8 763d 5484 96bc 040a a33d 9e93 4dbd
00000050: ca5c e53c 4b40 8c3e 5817 31be c15a d73d
00000060: 8b50 20ba 9f19 2c3e e998 a03d c12f 13bc
00000070: 8949 c93c e9b7 88be 6a37 64bd fa52 23bd
00000080: 1e18 12be 8a90 353d 64c4 56be 7f60 f6bc
00000090: 970a eb3d caac 0ebd 2872 3bbe 659c d63d
000000a0: db64 10be 1c7a 56be 600a c23c 87fc 8b3e
000000b0: 2d83 b0bd 44b3 8f3d 6ce6 e93d 1cef 8d3d
000000c0: 13a4 cd3c 2b60 ba3b 01ad 00bc c77a a7bd
000000d0: 5d85 ee3d e171 e63d 2544 a4bd 4fb7 4ebc
000000e0: 1540 b83d 06dd c73d 198e 0bbd 22f0 863a
000000f0: 6e97 3c3d 4347 93be 4f43 87bd 4945 52bd
00000100: 7cbf 1f3d 1b29 7b3d 1962 d13d 4588 913d
00000110: 47d5 9ebd 5d94 a63c 770c 0d3e d972 11be
00000120: 72d2 e93d 86cd 0e3d c626 41bd 07a4 eebd
00000130: dbdd 7b3d 3917 94bd 87f6 af3d 8b27 b7bd
00000140: ea98 16bd 5561 7c3d fe41 eabd d554 8fbd
00000150: e004 353d 942a 92be 5b38 ba3d e8ec f7bd
00000160: 2742 553c 0365 a0bc fec6 b9bc e1a8 a73d
00000170: 06de 83bd 782d 2e3e a5ad 973d 3a7a d2bd
00000180: 0d6f 163d af6f 6b3b fd01 fabd 45f1 0d3d
00000190: bce3 063c 9fb4 4d3d 1f34 1bbe 0be2 2f3e
000001a0: 4007 f8bb f878 67bd 7ad8 f1bc 1259 df3d
000001b0: d1ad f33c 3d3e bdbc ef87 f43d 8a24 d43d
000001c0: fe52 c03c 519a af3d 4335 9b3d 6848 a93c
000001d0: 1b69 92bb b924 a93c b90c 28be 2327 953d
000001e0: 78dd fb3a 7379 e1bc 74d9 a93d cafb 8a3d
000001f0: 24b4 b7bb 96a0 17be d661 d2bd abf6 7d3c
00000200: 24eb 383d 6180 9abd e98e 11be 1180 e83d
00000210: 446c 493e 11f9 2e3d 0b21 b0bd 3f53 c53d
00000220: cc32 f7bc 1bc8 6c3a 3b98 943d 3f46 353e
00000230: 6e42 453e 7bcb 863d b0df 67be d3d9 9b3d
00000240: b37f a2bc a269 a4bd 2d3c 2f3d 181e de3d
00000250: 8f22 fe3d 5080 a13d b2e9 a2ba bbec 81be
00000260: 67ce a8bc 78a7 d0bd 862a e8bb 6d64 9cb9
00000270: e5d7 263e 9b5d 84bd 680f f43c 543e d8bd
00000280: 95c1 f9bc 6fe6 19be 7bd7 d8bd 11f1 b13c
00000290: 72ce f73d 23ba 3cbc 5f51 66be 707a 823e
000002a0: 6e06 47be 11d0 46bd 2f3c d43d 52bd fb3d
000002b0: e9a7 1d3e 344f 603e c9dc 6a3d 16c2 55bd
000002c0: 3ecc 26bb bfc2 aa3d a1dc 3fbd effe 403c
000002d0: 22a4 5dbc 2fc8 153e fe98 0dbe 44bd efbd
000002e0: e919 0c3e 03ad f6bd 5e6f 7f3d 84cb c13b
000002f0: ccf9 0c3e 1ff4 99be 26c9 0a3e 7834 c8bd
00000300: 9f88 8bbd 1f95 843c 67ae 53bd d47e 3b3e
00000310: 2b5c 443e 7a85 ce3d a053 52bd 2386 683d
00000320: 4a05 f13d a7b8 263d af47 fb3d 04ac 0b3d
00000330: 70c2 213e 9fec 68bd 5ae1 a8bc d7be 2fbc
00000340: d11f ac3d 9dee 4f3b 2e30 743d 3179 4d3d
00000350: 30d3 343e 3a03 443e 473b efbd 5575 71bc
00000360: 4fdb ac3d b6c2 af3d a379 633c 5c49 1d3e
00000370: 9514 273e ae9a 49be 895c 923d 9623 41be
00000380: 3f60 dbbd 9042 e63c 78b8 2dbe 1d98 dc3b
00000390: d239 62bd 380a 4bba c31a d8bd 33a6 963d
000003a0: df45 843d 7edc 6abd 2875 7e3d 1675 913e
000003b0: 6ca1 cfbd 89e5 4ebd f855 6e3e 246d 303e
000003c0: b924 a9bd 7786 6b3d 35f0 9dbc 77cd 9cbd
000003d0: 0ab9 49ba c6ef dabc 5aa6 2abe 1501 94bd
000003e0: d431 303d cd1f 21bd 6445 80bc 7ab6 f03d
000003f0: 63d6 7b3d 74ea 64bd eecb 63be 3699 73bc
-0.044199362 -0.03792146 -0.22709896 -0.06143256 0.14207017 -5.1812614e-05 -0.2455583 0.13065985
-0.063160524 -0.0724341 0.13190903 0.16976841 -0.11748597 0.07078397 0.0939479 0.12754764
0.060280763 -0.018373646 0.07960895 -0.050189607 0.027998347 0.27392802 -0.17294061 0.10515357
-0.00061155175 0.16806649 0.07841665 -0.008983553 0.024571197 -0.26702812 -0.05571691 -0.039874054
-0.14267012 0.044327296 -0.20973355 -0.03007531 0.11476629 -0.034832753 -0.18305266 0.10479049
-0.14100973 -0.20945019 0.023686588 0.273411 -0.0861877 0.07016614 0.114209026 0.06930372
0.02510265 0.0056877336 -0.007853747 -0.08177715 0.11646531 0.112521894 -0.0802081 -0.012616946
0.08996598 0.09758954 -0.03407106 0.0010294954 0.046042852 -0.28765306 -0.06604635 -0.051335607
0.039000973 0.061318498 0.10223789 0.071060695 -0.07755523 0.020334417 0.13774286 -0.14203967
0.114170924 0.03486397 -0.047156118 -0.116523795 0.061490875 -0.07230992 0.08591943 -0.08943089
-0.036766924 0.06161626 -0.11438368 -0.06998602 0.044194102 -0.2854811 0.0909278 -0.12105733
0.01301626 -0.019579416 -0.022677895 0.08186508 -0.06438832 0.17009532 0.07406167 -0.10277219
0.036727 0.0035924723 -0.122074105 0.03465392 0.008233007 0.05022108 -0.15156601 0.17176072
-0.0075692236 -0.05651185 -0.02952217 0.10905661 0.029745968 -0.023100967 0.1193999 0.10358532
0.023477074 0.085743554 0.07578518 0.020664409 -0.004468096 0.020647394 -0.16411103 0.07282855
0.0019215783 -0.027523732 0.08293429 0.06786306 -0.005606191 -0.14807352 -0.10272567 0.015500705
0.045146123 -0.075440176 -0.14214672 0.11352552 0.19670206 0.042717997 -0.086000524 0.096350186
-0.030175589 0.00090325036 0.07255598 0.17702578 0.19263622 0.065817796 -0.22643924 0.07609906
-0.019836282 -0.0802796 0.042781997 0.10845584 0.12408935 0.07885802 -0.0012429266 -0.25375924
-0.020606233 -0.10188192 -0.0070851473 -0.00029829462 0.16293295 -0.06463166 0.029792503 -0.10558763
-0.030487815 -0.1502931 -0.10587975 0.021721395 0.12099923 -0.011518988 -0.22491978 0.25484037
-0.19436046 -0.04853827 0.103630416 0.12291969 0.15396084 0.21905214 0.057339463 -0.052187048
-0.0025451328 0.08337926 -0.046841267 0.011779531 -0.013527902 0.14627145 -0.13827893 -0.117060214
0.13681759 -0.12044718 0.062362067 0.0059141535 0.13767165 -0.30069062 0.13553295 -0.097756326
-0.06813168 0.016184388 -0.051679995 0.183101 0.19175784 0.100840524 -0.051349282 0.056768548
0.11768587 0.040703442 0.12269532 0.034099594 0.15796828 -0.056866284 -0.020615268 -0.010726652
0.08404506 0.0031727918 0.05961626 0.050164405 0.17658687 0.19141856 -0.11681228 -0.014737447
0.08440267 0.0858206 0.013883981 0.15360016 0.16316445 -0.19687912 0.07146556 -0.18861231
-0.10711717 0.028107911 -0.169649 0.0067320005 -0.055230923 -0.0007745358 -0.105519794 0.07355919
0.06458639 -0.057339184 0.062123448 0.28409642 -0.10138211 -0.05051187 0.23274982 0.17229134
-0.082589574 0.057501283 -0.019279579 -0.07656377 -0.00076951145 -0.026725661 -0.1666502 -0.07226769
0.04301627 -0.03933697 -0.015658088 0.11753555 0.061483752 -0.055887654 -0.22245762 -0.014868071

arith.constant9 f4 [32, 32]
00000000: 4e74 273d b25d d8be 8281 0a3e fc7d 613e
00000010: ccd3 75bd b193 f13d 2868 9c3e 0a3d 4cbe
00000020: e7ab 903c 6c29 c73c 146f e5bd ecdb a23c
00000030: 5fef 1a3e 38c9 93be acf0 6abe f00c f9bc
00000040: 2aa9 aebe a286 6ebd 231c cbbd 81b1 d5be
00000050: 54b4 463e 2001 7fbc 3311 1a3e 1c88 15be
00000060: 7bb3 a83b f5e7 7cbe f9e1 c33d c10a 03bd
00000070: e8f3 453d cb2b 3a3e 804b 553e 5ce9 d2bd
00000080: bf8c 51be 9783 85be 92dc 5d3e 84c0 3b3e
00000090: ecb6 ffbb f583 30bd 330f 483e 4c97 eb3d
000000a0: ae6c b2bb d26e 823e 3311 b63d e1c2 0abe
000000b0: e170 a2be e90d b5bd ae84 abbe 8875 65be
000000c0: 0819 cfbd a6ae 05be 67db 18bb 0813 40be
000000d0: 7167 973d 190d d73c 98aa 963b 7206 823e
000000e0: c51d 8cbd f9c6 d8bc 2055 2abe bdc4 ecbd
000000f0: 0384 89bd e828 5a3d 1351 a93e 2b18 b6bd
00000100: fd6f 2b3d 4929 b8be 20bf 943e a914 e43e
00000110: d787 0e3e 6d31 173e d191 123f 1e5e 8ebe
00000120: cc96 d7bd 9744 723e e471 a6be 4d0f 0abf
00000130: d7ef 5b3e 4ed5 a43e 22fe a5be f64f 2abd
00000140: dfa3 813c 7ebd 113e 1b64 6a3d 02b9 a8be
00000150: 990e 053e 9b3e 1abe 4d3e 043e 0393 0abf
00000160: 33fb 52bc 7596 2ebf 065b 003d 72cc 213e
00000170: f3ee de3d 5e24 f63e a44b 333e dc36 b9bd
00000180: 8628 0e3e c0da 67be df4e 6f3d b271 843e
00000190: ba28 ee3c 649d 053e 153d 853e 6374 abbd
000001a0: d67f 5f3c 99d4 1b3e fdea a1be b663 f73d
000001b0: f863 363e 9f80 90be 220f c7be 3bfb e9bc
000001c0: 12a3 93be 6040 33be 6fbe d83b be0e 453d
000001d0: 85e2 cc3e 7312 793d 9448 9d3c 8d1f c3bc
000001e0: 7d66 ccbd 2b49 95be 9d51 71bd b069 403e
000001f0: 727f 44be aa3e 6d3d 6af5 0fbd 5991 53be
00000200: dfde 613d bcc2 2abe d6af 473d b408 a93e
00000210: 093f 2ebd a085 983c a6d4 973e 18ba 093d
00000220: 3c81 ddbc 0af5 e93d f0f9 ccbd 4e92 38be
00000230: d4ce 97bd 8129 173d 4dd8 5b3c 4f81 943d
00000240: 7db8 b13e 78ae 12bd 535a 193e 1804 253e
00000250: 8f51 a63d 4a81 4dbd 64cd 303e 1fa0 ec3a
00000260: cab2 12be dfee 6e3e 9f84 55be 77b7 5fbc
00000270: b95b 37be 021e 173e 06d5 89be db59 ee3d
00000280: ac7d e3be 84e9 bbbe 4a4c 9bbe c15e 483f
00000290: 37c7 353e a2b1 0fbe 5bdb 473e e9d9 d13d
000002a0: d487 10bc 3858 5f3d fb46 e4bd 7bed ed3e
000002b0: 1136 00bf 8364 0b3e f858 cbbe 66a4 e43d
000002c0: c071 70be 787d 2fbe 8423 2fbe 98c7 72be
000002d0: c1b7 503e a5e0 09bd d120 7bbe b914 40bd
000002e0: f9de 38be 90cb 0bbf aaeb 01bd 59b3 7bbe
000002f0: 5a9d 99be 8375 b2be 73c6 1c3f 72ae b6be
00000300: 113b 7dbc e3a6 06bf aa0c d9bd 0f82 43bd
00000310: 5958 4d3e a5dd c93d cb2d 8b3e 47b1 8a3e
00000320: f728 a93e b023 bd3e ebfd d8bd b3db 63be
00000330: 04b2 843e 8548 b83e d1fc 8fbe ba07 493e
00000340: a599 41be e5f6 86bd fcd1 08be a894 0cbc
00000350: 5fa2 5a3e f979 563d 6b48 823e 24af 39be
00000360: 996c 5d3e 5950 09bf 8c40 b9bd f839 903d
00000370: 9434 c53d b3a5 b0bd 56bd b63e b06d 1d3e
00000380: 7a4b 993e caf3 c8be 8e20 513d 3df8 94be
00000390: fe19 a33e 3a90 463e 91e7 813e 70ba aa3d
000003a0: 799a 623d 3af4 1cbe 8a06 613b deef eb3d
000003b0: 7317 b4be 1879 c13e 74bf aabe a842 e03d
000003c0: 27b8 73be 7e03 bf3d b302 a93e 5588 9cbd
000003d0: ca1e 09bd 0e56 a33e 086d 1e3e 404d ddbd
000003e0: 25b9 593e ec03 413e e70d b8be 4d16 f73d
000003f0: 2928 c53d c13f 293d f23e 69bd 5592 d3bb
0.0408824 -0.42258984 0.13525966 0.22020715 -0.06001644 0.11795748 0.30548215 -0.1994516
0.017660094 0.024311744 -0.11202827 0.019880258 0.15130375 -0.28864455 -0.22943372 -0.030401677
-0.34113437 -0.058233865 -0.09917476 -0.41736987 0.19404727 -0.015564233 0.15045623 -0.14602703
0.005148349 -0.2469786 0.09564585 -0.031992678 0.04832831 0.18180768 0.20829582 -0.10298416
-0.20463847 -0.26076958 0.21666172 0.18335158 -0.0078037884 -0.043094594 0.19537048 0.11503467
-0.0054450845 0.25475174 0.08889999 -0.13550903 -0.31726745 -0.08840544 -0.33499664 -0.22408116
-0.10112196 -0.13054904 -0.0023324133 -0.1875726 0.07392777 0.026251363 0.004597973 0.25395542
-0.068416156 -0.026462065 -0.16634035 -0.11560962 -0.06714632 0.053261667 0.33069667 -0.088913284
0.041854847 -0.35968998 0.29052067 0.44547012 0.13919006 0.14764948 0.5725375 -0.2780618
-0.10526809 0.23658977 -0.32508767 -0.539296 0.2147821 0.3219399 -0.3242045 -0.041580163
0.01582521 0.14232442 0.057224374 -0.3295365 0.1299385 -0.15062945 0.12914391 -0.5413057
-0.012877273 -0.6819833 0.031336807 0.15800646 0.1088542 0.4807462 0.17509323 -0.09043667
0.13882646 -0.2264204 0.058424827 0.25867993 0.029072154 0.13048321 0.26023164 -0.083718084
0.013641318 0.15217818 -0.31624594 0.12079565 0.17811573 -0.2822313 -0.38878733 -0.028562179
-0.2883535 -0.17505026 0.0066144983 0.048109762 0.4001657 0.06080861 0.019199647 -0.023818756
-0.099804856 -0.29157385 -0.058915723 0.18790317 -0.19189242 0.05792109 -0.035146154 -0.20660914
0.055144187 -0.16675848 0.048751675 0.33014452 -0.042540584 0.018618405 0.29654425 0.03362474
-0.027039163 0.114236906 -0.10008609 -0.18024561 -0.07412496 0.036904816 0.013418269 0.07251226
0.34711066 -0.035810918 0.14975862 0.16114843 0.08121025 -0.050172128 0.1726585 0.0018053091
-0.14326015 0.2333331 -0.20851372 -0.013654581 -0.17906083 0.14757541 -0.26920336 0.11638232
-0.44431818 -0.36701596 -0.3033164 0.78269583 0.17751776 -0.14032605 0.19517271 0.10246641
-0.008821446 0.05452749 -0.11146351 0.46470246 -0.500825 0.13612561 -0.39716315 0.11164169
-0.23480892 -0.17137706 -0.17103392 -0.23708951 0.20382597 -0.033661503 -0.24524237 -0.046894763
-0.18053807 -0.54607487 -0.031718887 -0.24580134 -0.30002862 -0.3485528 0.6124031 -0.35679966
-0.015455977 -0.525984 -0.105981186 -0.047731455 0.20053233 0.098567285 0.27183375 0.27088377
0.33039066 0.3694129 -0.10595306 -0.22251777 0.25917065 0.35992828 -0.2812257 0.19631854
-0.18906267 -0.0659006 -0.13361353 -0.008580364 0.21351002 0.052362416 0.25445876 -0.18133217
0.21623458 -0.53638226 -0.090455145 0.07042307 0.09629169 -0.086253546 0.35691327 0.15373874
0.29940397 -0.39248496 0.051056437 -0.2909564 0.31855768 0.19390956 0.25371984 0.083363414
0.055323098 -0.1532754 0.0034336173 0.115203604 -0.3517414 0.377877 -0.33349192 0.10950214
-0.23800717 0.09326838 0.33009872 -0.07643191 -0.03347663 0.31901592 0.1547128 -0.1080575
0.21262033 0.18849152 -0.35948107 0.120648004 0.096268006 0.041320566 -0.056944795 -0.006456653

arith.constant10 f4 [32, 32]
00000000: 97ad 833d 0925 3abe c278 593e 3fce e93d
00000010: 1942 b0bd 7477 3fbd 9982 993e 5e88 d2bd
00000020: ac65 943e 2fa6 713e dc25 c5bd 07b2 95be
00000030: 1f90 c93d 40f8 653d 8ffa 01be f7c8 65be
00000040: 3486 10be 20a6 08be bbec febd 31f2 ccbd
00000050: 8419 213d 2388 78be f9c4 cb3d 76ae bebd
00000060: cd05 f13c 5dd2 debd 192e afbe b183 0dbe
00000070: 86c9 ae3d 55a1 9c3e e8c0 243e 9cda 413e
00000080: 0ee4 803e 92c3 90bd 3dff 4b3d 09f6 583e
00000090: 04f8 f1bc fdea 8fbc 3a78 f53d 5847 b63c
000000a0: 0a73 543e d19a 863d 6d17 fdbd 8920 eebd
000000b0: 2083 cf3d 68ad ffbd be0e d3bc a0b3 0abe
000000c0: 5761 1abe dfe5 33bb 4a2a 8fbd d668 f6bb
000000d0: c67f 98bc 8aed e4bd 2c15 23bc cc0e 6dbb
000000e0: 1dd9 33bd 4192 873d 19b4 69be 9d51 8e3b
000000f0: 618c 87bb 4600 313e 96f6 183d 3137 9c3e
00000100: a99d 1e3e 2940 4ebe d550 5f3e 62e3 583e
00000110: 37fb 2dbe b406 00bd ede2 a83e b0d8 45be
00000120: 47a3 003f 7423 d8bb 1d92 d9bd 1fbe 34be
00000130: c854 bd3e 5f8f d63d 5321 0ebe 50c9 69be
00000140: 156e c4be 323d fa3d 5bc4 fbbd 3d91 3ebc
00000150: f337 c7bd 5066 93be 5398 ab3d 1397 45be
00000160: e935 053d ed71 b0be 248e 06bf fecf 94bd
00000170: 913d 723d 074b 933e 5919 8dbd b660 a13e
00000180: 7130 53be 9b92 febd dca2 913e 6a06 b4be
00000190: fc11 77be 0c6f 00bf f34c f03d 6d11 d63d
000001a0: a631 53be de15 c93e 4545 653e 1044 64bd
000001b0: 4e39 ce3e d1d2 f5be 0516 c7be 8a84 b0be
000001c0: c007 e2be 14bd 32bf 8170 f3be 5fec 893b
000001d0: 334c 213e 1a34 b63d dbaa bb3d d573 b13d
000001e0: 9ea9 47be d436 093e 4e22 92be d06a 4abe
000001f0: 8d27 35bd 7612 dd3e 1970 283e 9804 c13c
00000200: 19f5 8cbd 0dad a53d aa70 373e 63fe dd3d
00000210: 0be0 89bd a1e2 353d d431 a1bd 8ecf b2bd
00000220: a486 8e3d 2dcf 92bc 2eaf 69be 87c7 88be
00000230: dcec 20be dc04 d8bd 9679 b83d 74aa 053c
00000240: d331 293e ca3e c03d 7173 3dbd a47a 88be
00000250: 2e28 08be 88ad 85bd 508d 4e3d aee1 2cbe
00000260: 3ab1 8abd 1ea3 fabd 7f89 063e a74f 95bd
00000270: dec6 31be 2db4 643e db2a 0cbe c439 c6bd
00000280: 2920 da3d 6350 68be 3b9a 323e 780f 203e
00000290: 45a2 54be 8a81 f03d 47fe 033e 5e8b 81bd
000002a0: 0be5 293e 0f36 a3be 92e1 01bf c0de 9bbe
000002b0: d632 613e 8dba f9bc 0221 083d 5782 44bd
000002c0: cad9 a3bd 5067 b9bc 1f8d f53c 3b3e 91be
000002d0: 2bd0 18be bb55 d9bd c6bd ccbd 734d f1be
000002e0: cfe6 473d 233b 8bbc 6fcf 46be c0fd a2bd
000002f0: 9130 06bd 7769 a33d 3d44 343a d19a 4bbd
00000300: 9a6a 60bc e766 acbe a74b 053e b4b6 9a3e
00000310: c738 2b3e 968a 55bc 8cef b83c 0661 eabc
00000320: ca02 c03d 03c9 ce3d 3bef c0bd 7302 45be
00000330: 9385 453b 1dec 66bd 7139 8bbd fb23 033d
00000340: fcba ff3d d70f c4ba dfd9 743d 4e07 6c3c
00000350: c1e4 06bc 7c19 dcbd 7879 efbc 12b1 9abd
00000360: 8370 c73d ac36 ccbb b70f c13c 7ffe f93b
00000370: 099b dabc 58bf 6b3e 8338 1dbe 7232 98bd
00000380: 0a82 ffbc 658d 43be be87 133e 723e 903e
00000390: cf7c 0f3b 27ca 1cbe 78d1 9b3e a567 ae3d
000003a0: f07a af3d 3499 b93e b670 4f3c 6aa0 34be
000003b0: 9931 08be 8cb0 7ebd 6c9e 38be 5c63 84be
000003c0: b464 99bc 3889 7fbd 5807 5bbe 11db edbd
000003d0: e074 573e f652 01be 9402 fb3d 2a42 343d
000003e0: 0af0 a23b 2769 963c 3cd3 a4be 6b37 72be
000003f0: eca1 163e b1a9 e43c 593b 823e 1873 66b9
0.06429594 -0.1817819 0.21237472 0.114162914 -0.08606357 -0.04674478 0.2998245 -0.10279916
0.2898382 0.2359855 -0.09626362 -0.29237387 0.09841942 0.056144953 -0.12693237 -0.22439943
-0.14113694 -0.13344622 -0.124474965 -0.10007132 0.039330974 -0.24270682 0.09949679 -0.093106195
0.029421711 -0.10879967 -0.34214857 -0.13819768 0.08534531 0.30591837 0.16089213 0.18931049
0.25173992 -0.07068552 0.04980396 0.21187605 -0.029537208 -0.017568106 0.11985822 0.022250816
0.20747009 0.06572498 -0.12357984 -0.11627299 0.10132432 -0.124842465 -0.025763866 -0.13545084
-0.15076195 -0.0027450246 -0.06990488 -0.0075198216 -0.018615615 -0.111781195 -0.009953778 -0.003617215
-0.043908227 0.066196926 -0.22822608 0.004343225 -0.0041366075 0.1728526 0.037344538 0.30510858
0.1548983 -0.20141663 0.21808179 0.2118049 -0.16990362 -0.031256393 0.3298563 -0.19320941
0.5024914 -0.006596023 -0.10623572 -0.1765065 0.36978745 0.104765646 -0.138799 -0.22830701
-0.38365236 0.12218703 -0.12293311 -0.011631307 -0.09727468 -0.28788996 0.08378663 -0.19295911
0.032522116 -0.34461918 -0.5256064 -0.07266234 0.059140746 0.2876818 -0.068896 0.31519097
-0.20623948 -0.124303065 0.28444564 -0.35161144 -0.24127954 -0.50169444 0.11733427 0.104525425
-0.20624408 0.39274496 0.22389705 -0.055728972 0.40278095 -0.48012403 -0.38883987 -0.3447612
-0.44146538 -0.6981976 -0.4754677 0.004209086 0.15751724 0.08896656 0.091634475 0.08664671
-0.19498298 0.13399822 -0.28541797 -0.19767308 -0.04422717 0.43178147 0.16449012 0.02356176
-0.06882686 0.080896474 0.17914072 0.10839536 -0.06732186 0.044405583 -0.07870832 -0.08730994
0.069592744 -0.017921055 -0.22820732 -0.26714727 -0.15715355 -0.10547802 0.09007566 0.008158315
0.16522913 0.09386976 -0.04625267 -0.26656067 -0.13296577 -0.06527239 0.050427735 -0.16882965
-0.067720845 -0.122381434 0.13138388 -0.07290583 -0.17361018 0.22334357 -0.13688223 -0.09678987
0.10650665 -0.22686915 0.17441647 0.15630901 -0.20765026 0.117434576 0.12889968 -0.0632541
0.16591279 -0.3187718 -0.5073482 -0.30443382 0.21992049 -0.030484462 0.033234604 -0.047975864
-0.08000524 -0.022632271 0.029974518 -0.2836779 -0.1492316 -0.10612055 -0.09997134 -0.47129402
0.0488041 -0.016995972 -0.19415067 -0.07958555 -0.03276116 0.079791 0.00068766234 -0.04970819
-0.013697291 -0.33672258 0.1301714 0.30217516 0.16720878 -0.01303353 0.022575162 -0.028610718
0.09375532 0.10096934 -0.094206296 -0.19239216 0.003013943 -0.05637752 -0.067980655 0.032016736
0.12486836 -0.0014958334 0.05977809 0.014406038 -0.00823325 -0.10747048 -0.029232726 -0.07553305
0.09738257 -0.0062321033 0.023567064 0.0076292153 -0.026685255 0.2302221 -0.15353589 -0.07431497
-0.031189937 -0.19096906 0.1440725 0.28172642 0.002189446 -0.1531149 0.3043325 0.085158624
0.0856837 0.36249697 0.01266115 -0.17639318 -0.1330017 -0.062180087 -0.18029183 -0.25857055
-0.018724777 -0.06238672 -0.2138952 -0.11614049 0.21040678 -0.12629303 0.12256351 0.04400841
0.0049724625 0.018360687 -0.3219241 -0.23653953 0.14710206 0.027912946 0.25435904 -0.00021977385

arith.constant11 f4 [32, 32]
00000000: 2a0b 75bd d738 e93d de55 c13d 420d 163d
00000010: 28c6 963d 2980 9d3b 2e19 39bd a1c1 32be
00000020: 44b7 9a3d 96c7 f33d 2647 cfbd c4b1 31be
00000030: af24 8fbc 951f 11be c730 9ebd e830 1e3e
00000040: 1d54 34bd fc4a 9f3c b43f 1c3e ec2b a6b9
00000050: 58cf 3ebe a240 933d 8186 16bd cf90 03bd
00000060: cb70 95bd f90c 03be a04a 963d 6bfc 143c
00000070: 88ca 91bd a0a9 6bbe ff42 813e 02ee afbd
00000080: 7932 653e 43cf 6ebc 2616 853d 1506 0d3e
00000090: d8df 113e fd25 05bd eb90 05be 9e23 c63d
000000a0: 434a 883d 6e86 2e3e d3e5 90bd 844c e03d
000000b0: 531e d03b fdfc 5ebe 320e 18be 6274 f4bb
000000c0: c20c 42be 5721 1abe 6c52 4c3c 2215 563d
000000d0: 2a5b f9bd e110 d23d f325 a73d 7518 5cbe
000000e0: ccb8 813d 8aeb 043d c661 833c fee2 3fbe
000000f0: 2e2b 29be 868d 413e 9614 123e 0c11 af3d
00000100: 587f b5bd 2de2 893d b614 1f3e d57d de3d
00000110: b7fd 1b3e b263 2a3d b186 cabd c502 11be
00000120: 16da 0b3e ba2c 443e 707c 3bbe 0bc7 cdbd
00000130: 664f 22bd d4ed 26be 712e 0abe 3fe8 653e
00000140: d442 74be c955 cdbd baf7 333e c6e5 16bd
00000150: 8041 d1bd 021c 363e 548a 53bd 9f86 9ebd
00000160: e27e a0bd 61e4 f1bd 76d4 ca3d 880c 9bbd
00000170: 30fa 73bd 1ae2 41be 7408 7c3e 16ad 55bd
00000180: 0c39 473d 9d33 c13d 382c a9bd a1c5 adbb
00000190: d321 68bb 40bb 0bbe 9111 da3d 4fab 203e
000001a0: eaea cabc 5f36 633c c5b1 cbbd d67d 1a3d
000001b0: cfb3 24be 1154 5a3b 4561 993c ed23 aabd
000001c0: b635 40bd 5cfc d93d c176 8fbe c481 cc3c
000001d0: 7bfb cc3d 073f fc3b b981 09be c99c 883d
000001e0: 7873 93bd 05f8 8f3d e58e 65be 2383 8a3d
000001f0: 91a0 2d3d f2e3 51bd 8f36 4bbe ced7 cb3d
00000200: 05d3 953d 3274 533c 8e52 17be 34ee d6bd
00000210: 1fff 87bd 94a6 1cbe 1dbb 323e 3921 9f3d
00000220: 7841 6abd ddf0 60bd f338 f13d 6ac3 22be
00000230: 0414 0fbe fb1c 073e e654 d83d a22f f1bd
00000240: ab8b 443e f074 373e 0246 7abe a5d0 eabc
00000250: 1bf5 aa3d e3e2 3cbe 1dc0 e0bc c0ce 073e
00000260: ce7b b43d 797a 02be 19df 8dbe 9041 cb3d
00000270: 4d99 22b8 c010 47bd c535 67be 2ea3 1cbc
00000280: 15ec 5abd ab83 983e 5f7c 2fbd 70c0 d7bc
00000290: c904 55bd 6d9e cf3d 46c0 1e3d 0e34 0e3d
000002a0: 1252 b5bd 4105 febd 9bc4 0cbd 74df 90be
000002b0: e1d5 b23d dd00 053e 04f9 5d3e 6d0f e63d
000002c0: c8e0 c53d 2dff 993c ce2e eebb 8797 a7bd
000002d0: cec5 0f3e 898e 0f3e a501 2c3e f029 723d
000002e0: 7d2c e2bc ed8f d0bd 40ad b13c 0dc6 823e
000002f0: b90b e73d 9219 3fbe 5ea8 9a3b 8d76 72bd
00000300: 02d4 d1bd ce76 07bd c3d8 cdbd 424a 02be
00000310: 903f 0abe 2bde 383d 94be d83d c372 c53c
00000320: e506 02be d48b 7bbe 10ee 0e3e b814 203e
00000330: 15a9 943d 88d7 b63d 9f09 703d f1d1 e7bd
00000340: f45b 353d df5f fe3d 92f2 57bd cd69 83bd
00000350: 1100 333d 5edf 01be 04cd 013e fcc4 d23d
00000360: 6b3c dc3d 29ab 243c 24af 03bd 1036 993b
00000370: 133c 8f3d e644 8e3d 0c60 eebd 2948 55bd
00000380: e91b 2dbe 9d85 cc3c fce5 9b3d 3dd6 503d
00000390: 0fbd 493d 1906 b7bc 28ff 993e 4a58 0bbe
000003a0: abd5 283d 7d4a 1a3d 97d7 dc3d e2fc 573e
000003b0: 9843 8abd 0cc9 6b3d 1fad 123b 008e 9fba
000003c0: a76b d33d 4fb0 cc3e 07ce 083c 977c e6bd
000003d0: b27c 84bc 7857 03be 1fe1 e0bd 08a1 403e
000003e0: 8eab 9c3d 6b62 edbc 458d 213c e7b5 a23d
000003f0: 1fa7 8d3d 58b5 4b3e 9d1d 12be 3227 bfbd
-0.0598251 0.113877945 0.09440206 0.036633737 0.07362014 0.0048065376 -0.04519003 -0.17456676
0.075544864 0.11903302 -0.10120992 -0.17352968 -0.017473547 -0.14172204 -0.07724147 0.15448344
-0.04402553 0.019444935 0.15258676 -0.00031694712 -0.18633783 0.07190062 -0.036749367 -0.032120522
-0.07296904 -0.12797917 0.07338452 0.009093384 -0.07118708 -0.23013926 0.25246426 -0.08590318
0.22382535 -0.014575782 0.06498365 0.13771851 0.14245546 -0.03250693 -0.13043563 0.09674762
0.06654789 0.17043468 -0.070750855 0.10952094 0.006351271 -0.21776195 -0.14849165 -0.007460163
-0.18950179 -0.1505178 0.012470823 0.052266248 -0.12175591 0.10257126 0.08161535 -0.21493705
0.06334075 0.03245119 0.016037833 -0.18738934 -0.16520378 0.18901643 0.14265665 0.08548173
-0.088621795 0.06732593 0.15535244 0.10863844 0.15233503 0.041598983 -0.098889716 -0.14161213
0.13657412 0.19157687 -0.18309188 -0.1004773 -0.0396265 -0.16301662 -0.13494278 0.22451876
-0.23853618 -0.10026128 0.17574969 -0.036840223 -0.10217571 0.17784122 -0.05164559 -0.07740521
-0.07836701 -0.11811138 0.09903805 -0.075707495 -0.05956477 -0.18933907 0.246126 -0.05216702
0.04863839 0.094336726 -0.08260387 -0.0053031 -0.0035420551 -0.13645649 0.10647882 0.15690349
-0.024770219 0.013867944 -0.09946016 0.037717663 -0.16084217 0.0033314268 0.01872314 -0.083076335
-0.046926223 0.10643837 -0.2802029 0.02496422 0.100089036 0.007697943 -0.13428392 0.066705294
-0.07199758 0.07029728 -0.22417791 0.067632936 0.042389456 -0.051242776 -0.19845031 0.09953271
0.073156394 0.012906121 -0.14777586 -0.104946524 -0.06640457 -0.1529792 0.1745419 0.077700086
-0.057191342 -0.054917205 0.1177844 -0.15894857 -0.13972479 0.13194649 0.10563068 -0.11776663
0.19193904 0.17915702 -0.24440768 -0.028663943 0.083475314 -0.18445925 -0.027435357 0.13262463
0.08812676 -0.12742032 -0.27709273 0.099246144 -3.8766582e-05 -0.04859996 -0.22579105 -0.009560389
-0.0534478 0.29787955 -0.04284322 -0.026336879 -0.052006517 0.10137639 0.038757585 0.034717612
-0.08853544 -0.12403346 -0.034367185 -0.2829548 0.087322004 0.1298861 0.21677023 0.11233411
0.09662014 0.018798435 -0.007268763 -0.081831984 0.140403 0.14019217 0.16797502 0.059122026
-0.027609104 -0.10183702 0.021689057 0.25541726 0.11281533 -0.18662098 0.004719778 -0.05919509
-0.102455154 -0.033072285 -0.1005111 -0.1272364 -0.1350081 0.04513375 0.10583225 0.024102574
-0.12697943 -0.24565059 0.13958001 0.15632904 0.07258812 0.08927828 0.058602925 -0.1131934
0.044277146 0.1242063 -0.052721567 -0.06416664 0.043701235 -0.12682864 0.12675864 0.10291478
0.10753711 0.010050573 -0.03214945 0.004675634 0.0699388 0.06946735 -0.11639413 -0.05207077
-0.16905178 0.024966056 0.076122254 0.050985564 0.049252566 -0.022341775 0.3007748 -0.13607898
0.041219395 0.037668694 0.10783308 0.21092561 -0.06751174 0.05756478 0.002238102 -0.0012173057
0.103232674 0.39978263 0.008349902 -0.112542324 -0.01617274 -0.12826335 -0.109804384 0.18811429
0.07649909 -0.028977593 0.009860341 0.07944851 0.069166414 0.19893396 -0.14269109 -0.09333648

arith.constant12 f4 [32, 32]
00000000: e3d6 983c fa9a 90bb 3a52 f939 b507 643d
00000010: 9c0e 56bc 0506 e73d 1953 2a3c 9039 a53b
00000020: 4482 2bbd 3be1 c9bc 0ea1 dfbd fe10 a9be
00000030: 1cb9 bcbd 80f1 d4bb ec5c 20bc a9d2 e63d
00000040: b283 d03c c0bd edbd 7c85 1dbd f863 d1bd
00000050: 5d30 1b3e cd51 293e 6f54 4abd c58f 1c3d
00000060: fcaa 3bbe d2b6 1bbe 0965 003d 0b0f d33c
00000070: dc69 003c d926 93be cc7c 0cbe 91ce db3c
00000080: 9179 5bbe 5711 86bd 4024 3cbc 4348 753b
00000090: 3d45 4abd 5570 49bd 2c43 563c 64f0 89bc
000000a0: 20c0 01bd 25aa 33bd d41a 663e 151f 0dbe
000000b0: 1c0e 9cbd ee13 ab3e 7f3e 9e3e 74ff a83c
000000c0: bacc 953e c355 a73d 5c14 d23c fb4b 0abe
000000d0: 0f47 dc3d 77da 92bd 41ec 5fbd ae0d 8c3e
000000e0: 3abb 633d 46aa 53bc 06bc e6bc 48e2 423e
000000f0: bd90 353e fe12 cebe da34 51be cf41 a5bd
00000100: bf47 123d 0f53 cd3d 99eb f93b 5e3e 15be
00000110: 9286 87bd 0bb7 183d 7b66 2b3e de7f f23d
00000120: 2c0b 1cbe 604b e83b d9bf 883e dd0a e0bd
00000130: 1f29 03bd 38ad a73e a108 123e 0dbe b53e
00000140: e4ee c23e 848f 813e 649e d2bd 8209 4dbe
00000150: 23b7 4f3e bff5 0fbe 0f38 28be edcc 5a3e
00000160: 5698 823d 5098 b93d 63ae 4ebe 6d6e 563e
00000170: 338a 113e cb9e aabe b7e6 95bd 648e 473e
00000180: af76 96bd df0d 3e3e 2b2a 30be 3f28 b4be
00000190: 5d50 9abe 323b 393d 0a88 693e c32c b9bc
000001a0: 2c10 cbbe 907f dcbe 9c28 a3bd 7f15 53be
000001b0: 5ed6 1ebe baee fd3d 30ff 633e acfe a63b
000001c0: e971 b33d fc8a 713e e24e 3fbd a9ff b3be
000001d0: f742 263e 4681 b7bd 909c 49be 3871 863e
000001e0: 3302 1fbe 2ab1 1abe bf17 d6bd 8b65 833e
000001f0: ac8e 523e a677 76be 2a58 1cbe b3f4 08be
00000200: 8731 64be f97c d53e 90ac 4ebe de7b 26be
00000210: c499 47be ad37 f53b f06d 873e 4c7a 2bbe
00000220: a1d5 4cbe 2104 c7be 3bb1 223e 7bb1 84be
00000230: b61d b1bd e8b0 183e 7922 ce3d 6321 20bd
00000240: 41c8 0f3e fd31 aa3e c070 e13c ba7b a6be
00000250: bc79 0cbd 92f2 fc3d 7843 04be 13e9 b93e
00000260: 78b6 ab3c 8585 80be 0f34 bf3a 32f6 be3e
00000270: 3641 653e fd77 a2be 2487 373e 7ea2 92be
00000280: f863 4a3c 01a0 63be efd1 533e 57c4 ae3d
00000290: 5598 8fbd 404e 383d c7c7 79be 0da2 a3bd
000002a0: 84a4 293e 5921 483e d3d2 91bd 0a5f e7bd
000002b0: 928d 113d 1717 68bd d52c 71be 27b9 af3d
000002c0: 15da d3bc 3b59 a6bd ced7 d2bb dc81 fd3d
000002d0: d33c dabc b9ee 3fbe 32cc 0f3d a9ba 2cbe
000002e0: 46d0 f03d 565a de3d 12ef c83d 5566 68be
000002f0: 6381 dabd 03ad 90bd 0018 b63d 37a6 223e
00000300: 6f9b c93d 3910 5b3e 42a6 b7bd 82e0 c4bd
00000310: 8a05 d0bd d634 4abd b655 623e ac19 f03d
00000320: 6328 65bd 20e4 3abd c59e 86bc bb68 5bbe
00000330: 979f cebd eee7 883d 901f d93d b408 823d
00000340: d9d7 e73d 2a52 673e b806 d0bd 1acd 83bd
00000350: 15a6 003e c2d1 39bd 3911 b2bd 02b1 dd3d
00000360: b6f9 e3bc 0524 49bc 730b 54bd 696a 563e
00000370: 3bc5 863d 84e6 08be a8eb 283d 5ba9 f43d
00000380: d897 ca3d 7866 c13d 1c77 c53b 8418 0b3e
00000390: eb94 933d 58c4 f9bb 7556 053f 5b0c 5c3d
000003a0: 1ed0 043e a689 a3bc 9bc1 90be 3dc8 3b3e
000003b0: 39fc 023e c8ac 37be 2d3a 9ebe e03e 13be
000003c0: f7b5 49be ea7d 1d3f 3c67 babd 6f8e 473e
000003d0: 9cfe 01be 04d1 913a 628c ddbd 9393 9d3e
000003e0: 4a31 16be 35f4 593d b8fa ae3c 5b04 1abe
000003f0: 6f7c 493d 5aa5 0bbe 6151 80bd 1742 91bc
0.018657153 -0.004413006 0.00047554245 0.055671412 -0.013065007 0.11280445 0.010395789 0.0050422624
-0.041872278 -0.024643531 -0.109193906 -0.33020777 -0.09214994 -0.0064985156 -0.009787779 0.11270649
0.025453422 -0.116084576 -0.03845738 -0.10224146 0.15155168 0.16535111 -0.04939693 0.038223047
-0.18326944 -0.15206459 0.031346355 0.025764009 0.007837739 -0.28740576 -0.13719481 0.026831897
-0.21433093 -0.06546276 -0.011483252 0.0037427105 -0.049382437 -0.049179394 0.013077538 -0.01683826
-0.031677365 -0.043863434 0.22471172 -0.13781388 -0.07619879 0.33413643 0.30907056 0.020629622
0.29257756 0.081706546 0.025644474 -0.13505547 0.10755741 -0.07170575 -0.05466867 0.27354187
0.055598475 -0.012919014 -0.028165828 0.19031632 0.17730995 -0.40248865 -0.20430318 -0.080691926
0.035712954 0.10025608 0.0076269624 -0.14574572 -0.06617464 0.03728394 0.16738312 0.11840795
-0.15238637 0.0070890635 0.26708868 -0.10939572 -0.032021638 0.32749343 0.14261104 0.3549656
0.38072884 0.25304806 -0.10284117 -0.20023158 0.20284705 -0.14058588 -0.16427635 0.21367235
0.06376712 0.090622544 -0.20183711 0.20940562 0.14212875 -0.33324274 -0.07319396 0.19487911
-0.07346856 0.18559979 -0.17203586 -0.35186955 -0.30139437 0.04522247 0.22805801 -0.022604352
-0.39660776 -0.43066072 -0.0796673 -0.20613669 -0.15511462 0.12399049 0.22265315 0.005096277
0.08761961 0.23588175 -0.046706088 -0.3515599 0.16236483 -0.08960204 -0.1968863 0.26258254
-0.15528183 -0.15106645 -0.10453748 0.2566341 0.20562238 -0.2406908 -0.15268007 -0.13374595
-0.22284518 0.4169691 -0.20183015 -0.16258189 -0.1949225 0.0074834437 0.26451063 -0.16745871
-0.20003368 -0.38870338 0.1588792 -0.25916657 -0.08648245 0.14911234 0.10065169 -0.03909434
0.14041235 0.33241263 0.027519584 -0.3251627 -0.034295782 0.12350954 -0.12916362 0.36310634
0.020961031 -0.25101867 0.0014587658 0.37297207 0.22388157 -0.3173217 0.17922646 -0.28639597
0.012352936 -0.22229005 0.20685552 0.085335426 -0.07011477 0.0449965 -0.24392615 -0.07989893
0.16566664 0.19543971 -0.0712029 -0.11297424 0.035535403 -0.056662645 -0.23552258 0.08580237
-0.025860826 -0.08122488 -0.0064344173 0.12378284 -0.026640331 -0.18743409 0.035106845 -0.1686808
0.11758475 0.10857074 0.09811224 -0.22695287 -0.1066921 -0.07064249 0.088912964 0.15883718
0.098441 0.21392907 -0.08967258 -0.09613134 -0.101573065 -0.049366795 0.22103009 0.117236465
-0.05594672 -0.045627713 -0.01643313 -0.2142667 -0.10089033 0.06684862 0.10601723 0.06349316
0.113204665 0.22589937 -0.101575315 -0.064356044 0.12563355 -0.045366056 -0.08694691 0.10824777
-0.027829032 -0.012276654 -0.05176873 0.2093903 0.065805875 -0.13369185 0.041240364 0.119463645
0.09892243 0.094433725 0.006026162 0.1358357 0.07206138 -0.007622283 0.5208505 0.05372272
0.12970015 -0.019963097 -0.2827271 0.18338104 0.12791528 -0.17937005 -0.3090376 -0.14379454
-0.1969832 0.61520255 -0.09101722 0.19487928 -0.12694782 0.0011124914 -0.108177915 0.30776653
-0.1466724 0.05321141 0.021359786 -0.15040724 0.049190935 -0.13637295 -0.06265522 -0.01773171

arith.constant13 f4 [32, 32]
00000000: d8c3 293e 4d18 083e e807 0fbd e10b c33c
00000010: 7d68 653d aa09 90bb 85e1 83be 62d3 6b3d
00000020: bbf8 553c 0af0 303e a787 5bbd a005 023e
00000030: 0afc 6bbd fee5 70be 163d 3bbe 7a38 bbbb
00000040: e36c 8ebe d02e 793c 6f8b 48be 06f0 6abd
00000050: f5af 74be 13bb 473e cb26 093e 8720 87be
00000060: a810 4a3d a1cf 333d 9a11 3ebe ef96 51be
00000070: 10b2 18be 23ae 583e e2d1 6bbd ff2d bdbc
00000080: 7624 1c3e be28 363c 0ae0 563e 72b5 543e
00000090: 87c8 643e 49d8 353e d30a 1fbe d90a 093d
000000a0: 6a1a 143e 320c 783e 7501 cabd 72bf 843d
000000b0: a7be 363e f338 b9be ac36 bfbe 8997 6f3e
000000c0: 4e40 e4be b7b9 21be e5b7 463e 3f2d 7b3d
000000d0: da7e 59be 3b77 783e bbbc 6d3e f6bd 8fbe
000000e0: af79 c03c 682c 253d 481a 6c3e 90c2 b2be
000000f0: 07c1 01be 2309 dcbd afdd c83e bf50 17bd
00000100: f2af 423e 0644 82bc e891 833c 6d49 f6bc
00000110: 46a7 71bd bd10 fe3d 88db 25be 8bef a93d
00000120: ac4b 19bd 3f11 a0bb 0212 a4bd 458b b7bd
00000130: b5b5 d9bb a65a 82bd 8d5b a93c 49c1 ef3d
00000140: 00c9 cc39 c50d 4ebe 95a3 b63d 7802 4dbd
00000150: 1fa6 44bd 6991 d13d fff3 c4bc 9ebd c5bd
00000160: 281d 95bd a5ea 743d 2ec4 693d dff7 003e
00000170: e1e7 c13c ba4f 55be 434c a23e 10ba 933d
00000180: fc55 edbc dc58 233d 482f 273e bc48 593e
00000190: a92b d03d 0201 583d db88 81be 112d 6e3d
000001a0: e424 7a3d 44d2 d23d 9fb1 82bd 1771 c73d
000001b0: b51d 3cbc de91 0e3e a4e8 4c3e 987a 623e
000001c0: 7423 be3b 1f4f 8ebe e526 3ebe 896b 26bd
000001d0: fae6 633e fe8c dc3d 78c5 fe3d 3904 7ebd
000001e0: ee5c 5b3d 5f42 a93d 2c04 06be 0ba5 273b
000001f0: 4e93 ce3d 99a1 2d3e d1c8 0abe c05c 363e
00000200: abc7 d7bc 29fd 383e 18f7 6c3d 8e81 163e
00000210: 5409 3c3e 557b 203c 97c4 dfbc 46dc 50be
00000220: b33b b93d 8911 293e f3ec b5bd 35e7 edbd
00000230: 893e 8fb9 cfd1 3abe 82bd 58be 91b3 c63d
00000240: 8e92 52be a773 5bbd 3653 b6bd 9cb7 453d
00000250: 9bee 95be b3ac 643e 24da f5bd eb6e 773d
00000260: 3d5d bcbc af43 16be bd2f a43c 0be2 af3d
00000270: cb15 4d3d c74a 0fbe f3d0 b53d 6e7d e2bd
00000280: f573 a93d 8849 5f3d 153c c13a f097 eebb
00000290: 92ad 293d 82c8 393d 24d1 fa3d 443c 963d
000002a0: 2d10 cabd e216 18be 6349 9b3d e135 c1bb
000002b0: 086d fe3c e7bf 46be d548 c9bd a9fc 0a3e
000002c0: cf33 22be abc8 993d d390 fd3d ed6b 79bd
000002d0: 375a 5cbe 9ecf fcbc 5332 533e 3318 83bd
000002e0: eb32 9b3d ede0 95bd 508c 053d ce71 d6bd
000002f0: 28d3 82bd 22fb 1b3e 8ecf fa3d e981 aa3c
00000300: a581 25be 81d2 3b3e 4c5a 6f3e 030a ad3d
00000310: d193 833d 28dc 6c3e 1fa6 8e3d 07ca 27be
00000320: a0a9 223e a737 633d d163 573d 3cfd fa3d
00000330: c5a1 383e 4d5f b53c 6745 213d e2f5 8a3e
00000340: 4772 933d a67a 4b3d 47dc 3f3e 4799 b93d
00000350: 55aa 6bbd 5609 acbc 08d4 b73c 9263 8a3d
00000360: 845a 933d a076 823d d0b1 713e 36bf 5d3e
00000370: 1dfa 813d 31ba 61bd 2a04 9d3d 4ee4 cabb
00000380: 5413 4abe 98ca a13e 221a 633e a71e 1e3d
00000390: 005b 013e 7f90 083e dbef 45bd 4a94 4ebd
000003a0: c3fb 903d 481a 86bd 33bd c43d b67f 3dbe
000003b0: f7a5 92bc 8384 293d ed08 4b3e 0094 073e
000003c0: 7cdc 353c 9b96 55bd 4826 3d3e 1322 88be
000003d0: 99ee d43c 9e28 c33d 8890 963c a340 b7bc
000003e0: de52 c13d 888d b3bd f273 883e a820 6c3e
000003f0: c064 0e3e 6954 15bd 214c 923c cd26 21be
0.16578615 0.1329052 -0.03491965 0.023809375 0.05600785 -0.0043956833 -0.25757995 0.057574637
0.01305979 0.17279068 -0.053596165 0.12697458 -0.05761341 -0.23525235 -0.18285021 -0.0057135196
-0.2781745 0.015208915 -0.1958444 -0.05735781 -0.23895247 0.19504957 0.13393705 -0.26392004
0.04933229 0.043899182 -0.18561402 -0.20467733 -0.14911675 0.21160178 -0.057573207 -0.023093222
0.15248284 0.011118112 0.20983902 0.20772341 0.2234212 0.17758287 -0.15531473 0.03345761
0.14463201 0.24223402 -0.09863559 0.06481828 0.17846166 -0.3617626 -0.373464 0.2339765
-0.4458031 -0.15793501 0.19406088 0.061322447 -0.21239796 0.24264233 0.23216526 -0.28074616
0.023495523 0.040325552 0.230569 -0.34914064 -0.1267129 -0.1074393 0.3923163 -0.03694224
0.1901243 -0.015901577 0.016060784 -0.030064309 -0.058997415 0.12405536 -0.16197026 0.08297642
-0.037425682 -0.0048848684 -0.08011247 -0.089621104 -0.0066439756 -0.06364946 0.020673538 0.11706788
0.0003905967 -0.2012244 0.089179195 -0.050051183 -0.048009988 0.10232813 -0.024042128 -0.09655307
-0.07280952 0.059794087 0.057071857 0.12594555 0.023670139 -0.20831195 0.31698808 0.07213223
-0.028971665 0.039879665 0.1632663 0.21219152 0.101645775 0.052735336 -0.25299725 0.058148447
0.061070338 0.10294011 -0.06381535 0.09738367 -0.011481692 0.13922831 0.2001062 0.22117078
0.005802566 -0.2779474 -0.18569525 -0.040629897 0.2225608 0.107690796 0.12440008 -0.062015746
0.05355542 0.082646124 -0.13087529 0.002558055 0.1008669 0.16956176 -0.13553168 0.17808819
-0.026340326 0.18065323 0.057852834 0.14697859 0.18362933 0.00979503 -0.027315421 -0.20396528
0.0904459 0.16510595 -0.08883085 -0.11616365 -0.00027321678 -0.18244098 -0.21166041 0.09702218
-0.20563719 -0.05357709 -0.0890259 0.048270807 -0.29283604 0.22331505 -0.12004498 0.060408514
-0.022993678 -0.14674257 0.020042295 0.08588036 0.05006961 -0.13993369 0.088777445 -0.1105908
0.0827407 0.054513484 0.0014742637 -0.007281296 0.041425295 0.045357235 0.12246922 0.073357135
-0.098663665 -0.14852479 0.07582357 -0.0058963154 0.03105785 -0.19409142 -0.09828345 0.13572945
-0.15840076 0.075089775 0.12381139 -0.06089394 -0.21518789 -0.030860718 0.20624666 -0.064011
0.07578071 -0.07318292 0.032604516 -0.10470925 -0.06387931 0.15232518 0.12246619 0.0208139
-0.16162737 0.1834202 0.2337429 0.08449175 0.06424678 0.23130858 0.06965279 -0.16385661
0.1588502 0.055472996 0.052585427 0.12255332 0.1803046 0.02214017 0.039372828 0.2714072
0.07199531 0.049677514 0.18736373 0.090624385 -0.05753549 -0.021000545 0.022439972 0.06757273
0.07194999 0.06370282 0.23602986 0.21654972 0.063465334 -0.055109207 0.0766681 -0.006191767
-0.19733936 0.3159988 0.22177938 0.03860345 0.1263237 0.13336371 -0.048324447 -0.05043439
0.0707927 -0.065479815 0.096063994 -0.18505749 -0.017901404 0.04138614 0.19827624 0.13240051
0.011099931 -0.05214558 0.18471634 -0.26588497 0.025992678 0.095292315 0.018379465 -0.022369688
0.09439634 -0.08767229 0.2665096 0.23059332 0.1390562 -0.036457453 0.017858567 -0.15737458
